systems/MPPI6/best_traversability_model.pth (torch, 512335 bytes, 54 tensors)

conv1.conv.weight f4 [42, 1, 5, 5]
0	0xbf59b6d0	-0.85044575
1	0x3d775b20	0.060389638
2	0x3ee5fc34	0.44918978
3	0x3ee1975c	0.4406079
4	0x3edb2f04	0.42809308
5	0xbf0e1749	-0.5550428
6	0xbf05a09a	-0.52198184
7	0xbe9b0ec4	-0.30284703
8	0x3dc9dae4	0.09856203
9	0xbe79dbe9	-0.24400295
10	0x3e5f67fa	0.21817008
11	0xbd5ff081	-0.05467272
12	0x3e842e39	0.25816515
13	0x3eafe261	0.343524
14	0x3ec2fbfd	0.38082877
15	0x3e8fb44b	0.2806724
16	0x3cc8585a	0.024456192
17	0xbf2e08d9	-0.6798225
18	0xbea0bce9	-0.31394127
19	0xbd9f4a82	-0.07777883
20	0x3e67c297	0.22632824
21	0xbcd9204b	-0.026504656
22	0xbde14dd1	-0.110011704
23	0x3df1acae	0.11800514
24	0xbead63a9	-0.33865097
25	0xbe33cda3	-0.17558913
26	0x395f1a99	0.00021276846
27	0xbd304d8b	-0.0430427
28	0xbebc8c98	-0.36826015
29	0x3ead6276	0.33864182
30	0x3c99cbd0	0.018773943
31	0x3f1435af	0.57894415
32	0x3e126121	0.14294864
33	0xbd504fcc	-0.05085735
34	0x3ec81ccd	0.39084473
35	0xbc34feb7	-0.011047057
36	0xbeb34dc6	-0.35020274
37	0xbdec73d4	-0.1154553
38	0x3efb53e4	0.4908744
39	0xbeab61ff	-0.33473203
40	0x3e271c80	0.16319466
41	0x3f12cc77	0.5734324
42	0xbe357e3d	-0.17723937
43	0xbe87356d	-0.26407948
44	0xbf20767f	-0.6268081
45	0x3e3de1ff	0.18543242
46	0xbd3ed696	-0.046591364
47	0x3e8922c8	0.26784348
48	0xbe3604a9	-0.17775215
49	0xbed548f5	-0.41657224
50	0xbd7a914e	-0.06117373
51	0x3d52e79f	0.051490422
52	0x3e86f867	0.2636139
53	0xbe420e43	-0.18950753
54	0xbedb4713	-0.42827663
55	0x3e5ed090	0.21759248
56	0xbe301126	-0.17194042
57	0x3e03c9b1	0.12869908
58	0x3f092c70	0.5358343
59	0xbe51be25	-0.2048269
60	0x3e4279e9	0.18991818
61	0x3e70a513	0.23500471
62	0x3e804cb3	0.25058517
63	0x3e64cfc7	0.22344886
64	0xbeef646d	-0.46756306
65	0x3e282dc4	0.16423708
66	0xbebe5c02	-0.3717957
67	0x3eccf402	0.40029913
68	0xbe939620	-0.28825474
69	0x3d839bd6	0.06426208
70	0xbe493c39	-0.1965188
71	0xbe9c5b4f	-0.30538413
72	0x3e3ef1b5	0.18646891
73	0xbe1d81cb	-0.15381543
74	0xbe85560d	-0.26042214
75	0x3e8cc722	0.27495676
76	0xbe93f32b	-0.2889646
77	0xbee9a805	-0.45636
78	0xbe5816c6	-0.21102437
79	0xbbbdfaad	-0.005797705
80	0x3e8f85e4	0.28031838
81	0xbdf44075	-0.11926357
82	0x3dd19463	0.10233381
83	0xbeed847e	-0.46390146
84	0x3f3773ca	0.71661055
85	0xbe7574ec	-0.23970383
86	0x3c30e2e5	0.010796283
87	0xbe6f9943	-0.23398308
88	0xbe473d90	-0.19457078
89	0x3e0105ca	0.12599865
90	0xbee3a4d0	-0.4446168
91	0x3ecdd118	0.40198588
92	0x3e28b64d	0.16475792
93	0xbea1e9de	-0.3162374
94	0x3e744e18	0.23857915
95	0x3e02bb96	0.12766871
96	0xbe155660	-0.1458373
97	0xbec1c3ca	-0.37844688
98	0x3eab316f	0.33436152
99	0x3f3516bc	0.70737815
100	0xbcdd5ec9	-0.027022736
101	0x3f0130e6	0.5046524
102	0xbd877c63	-0.06615522
103	0xbeb42afd	-0.35189047
104	0xbd836949	-0.06416566
105	0xbec1d47d	-0.37857428
106	0xbe2891dd	-0.16461892
107	0x3ec9fbbf	0.3944988
108	0x3e78da1a	0.24301949
109	0x3f0daf67	0.5534577
110	0x3e662abf	0.22477244
111	0x3dd93a7d	0.10606859
112	0xba9e575d	-0.001208048
113	0x3cc8ebd9	0.024526523
114	0x3ef3fd2c	0.47654092
115	0xbeac0be8	-0.33602834
116	0xbe49d383	-0.19709592
117	0xbe5e790c	-0.21725863
118	0xbed75d18	-0.42063212
119	0x3e09830c	0.13428897
120	0xbe2f194f	-0.17099498
121	0xbebeef84	-0.3729211
122	0xbd28b16b	-0.041184824
123	0xbe0b69f3	-0.13614635
124	0x3e8b3f98	0.27196956
125	0x3ec1c133	0.37842712
126	0x3c9d8c42	0.01923192
127	0x3dd58d10	0.10427296
128	0xbe553a37	-0.20822988
129	0x3f7f084f	0.9962205
130	0xbdc6182c	-0.09672579
131	0xbe07ed92	-0.1327422
132	0xbeb4e928	-0.35334134
133	0x3e81845c	0.25296295
134	0x3ebe7c94	0.3720442
135	0x3ea18e22	0.3155375
136	0x3e87be42	0.26512343
137	0x3db07dbd	0.08617733
138	0x3e0a38db	0.13498251
139	0xbd48924c	-0.048967645
140	0x3d341a7b	0.043970566
141	0xbec5389f	-0.3851976
142	0xbe80555f	-0.25065133
143	0xbe4b56d4	-0.19857341
144	0xbd9959b3	-0.07487812
145	0xbe679a7b	-0.22617523
146	0xbe245143	-0.16046624
147	0xbeb205fb	-0.34770188
148	0x3e5e5b29	0.21714462
149	0xbdf88245	-0.12134222
150	0x3f1fe57e	0.6245955
151	0xbe1fd218	-0.15607488
152	0x3e866866	0.26251525
153	0xbe3a45b3	-0.1819065
154	0x3e91ae99	0.2845352
155	0x3e720855	0.23635991
156	0xbe7c292f	-0.24625085
157	0x3dc76b50	0.09737265
158	0x3e102549	0.14076723
159	0xbecafa1d	-0.39643946
160	0x3e47abfe	0.19499204
161	0x3e2582b4	0.1616314
162	0xbed77adb	-0.4208592
163	0xbe947831	-0.2899795
164	0xbe1bbc78	-0.15208614
165	0xbe0e1b1e	-0.13877532
166	0xbe822c46	-0.25424403
167	0xbe798491	-0.24366976
168	0x3e9888ec	0.29791963
169	0x3e02bfbc	0.12768453
170	0x3d0c3832	0.03423328
171	0x3e3d185a	0.1846632
172	0xbdb4afb1	-0.08822573
173	0xbe5eaebf	-0.21746348
174	0x3e0e5045	0.13897808
175	0x3e4934fb	0.19649117
176	0xbea45207	-0.32093832
177	0xbd93637f	-0.07196712
178	0xbd614916	-0.05500134
179	0x3e19a011	0.15002467
180	0xbd5027b4	-0.050819114
181	0xbd9351b0	-0.07193315
182	0xbd92d7e2	-0.07170083
183	0xbe6c23bd	-0.23060508
184	0xbe5dfa41	-0.21677496
185	0x3dd13906	0.102159545
186	0xbe0874d8	-0.13325822
187	0xbe183da2	-0.14867261
188	0x3c9a8b12	0.018865142
189	0xbda567fc	-0.08076474
190	0x3ef8ac4c	0.48568952
191	0x3efa89d2	0.48933274
192	0x3d99c2e0	0.075078726
193	0xbef3cc52	-0.47616822
194	0xbefd80ed	-0.49512425
195	0x3e90d42f	0.28286883
196	0x3ec90844	0.3926412
197	0x3ea5c0fe	0.32373804
198	0x3cfb6a85	0.03069044
199	0xbe1b6ab5	-0.15177424
200	0xbe8a693e	-0.27033418
201	0x3efa7900	0.4892044
202	0xbe2133e1	-0.15742446
203	0xbea2f017	-0.318238
204	0x3e845777	0.2584798
205	0xbb9a0e93	-0.0047014444
206	0xbe9e9161	-0.3097029
207	0xbe4ae60b	-0.19814317
208	0x3ed279eb	0.4110864
209	0xbce5a9fa	-0.028035153
210	0x3ef4a0ab	0.4777883
211	0x3dba8c2a	0.091087654
212	0x3e58d641	0.21175481
213	0x3d586b54	0.05283673
214	0xbf0573e3	-0.52129954
215	0xbf056bc0	-0.5211754
216	0xbef0ae6b	-0.4700807
217	0x3c97836c	0.018495284
218	0xbd2ea6ad	-0.042639423
219	0x3f2a45ec	0.6651294
220	0x3f67f0f5	0.90602046
221	0xbe6079ed	-0.21921511
222	0xbe440724	-0.19143349
223	0x3d18eb3f	0.037333723
224	0xbebc0fa8	-0.36730695
225	0x3dad97bb	0.08476206
226	0xbcef6f0c	-0.029227756
227	0xbdf120f4	-0.117738634
228	0x3eb14059	0.34619406
229	0xbdf61e47	-0.12017494
230	0xbe6505d5	-0.22365506
231	0x3ef3090d	0.47467843
232	0xbefbd4e0	-0.49185848
233	0xbbf53864	-0.007483529
234	0x3e03e99a	0.1288208
235	0xbe90269b	-0.28154454
236	0xbebce34e	-0.3689217
237	0xbf0821f2	-0.53176796
238	0x3e831d31	0.2560821
239	0x3ed25596	0.41080922
240	0xbeddf794	-0.4335295
241	0x3c59a74f	0.013284518
242	0xbe04dcb4	-0.12974817
243	0x3e448c95	0.19194253
244	0xbd9afcdb	-0.075677596
245	0xbe93a8d0	-0.2883973
246	0x3d4bd69a	0.049765207
247	0x3ec2b0fa	0.38025647
248	0x3effea19	0.4998329
249	0x3e2ca101	0.16858293
250	0xbe418d28	-0.18901503
251	0x3e4dc6cf	0.2009537
252	0xbe6fca7e	-0.23417088
253	0x3e48630f	0.19569038
254	0x3e52819b	0.20557253
255	0xbd7fe1c8	-0.06247118

conv1.conv.bias f4 [42]
0	0x3e22adc1	0.15886594
1	0x3e1c4468	0.1526047
2	0x3b7e6660	0.0038818344
3	0x3e4bbb77	0.19895731
4	0xbdf43836	-0.11924784
5	0xbd989eb6	-0.07452147
6	0xbd38cbc0	-0.045116186
7	0x3e35125b	0.17682783
8	0xbdb3fece	-0.087888345
9	0x3e3f0d58	0.18657434
10	0x3c86231d	0.016374165
11	0xbe350983	-0.1767941
12	0xbd84eec2	-0.06490852
13	0x3e3a0906	0.18167505
14	0x3ca6fcb9	0.02038418
15	0xbd7c5375	-0.06160303
16	0x3e2cc924	0.16873604
17	0xbe375fcb	-0.17907636
18	0xbe446532	-0.19179228
19	0x3e0bca70	0.13651443
20	0xbe167d08	-0.14696133
21	0xbdff67d8	-0.124709785
22	0xbe2a569d	-0.16634603
23	0xbcafcd45	-0.021460185
24	0xbe0f7e66	-0.14013061
25	0x3d1ebe95	0.038755972
26	0x3e1d8bdc	0.15385383
27	0x3e199b5b	0.1500067
28	0x3e3e4bb2	0.18583563
29	0x3d73b119	0.059495065
30	0xbd73e667	-0.0595459
31	0x3e2e741a	0.17036477
32	0xbe485dc6	-0.19567022
33	0xbd1bd48e	-0.038044505
34	0x3e20ad67	0.15691148
35	0xbc8fcb7f	-0.01755309
36	0xbc1ae93c	-0.0094550215
37	0xbe46063d	-0.19338317
38	0xbdd3d675	-0.10343639
39	0x3e0c8c5e	0.13725421
40	0x3e202fed	0.15643282
41	0xbdd91962	-0.106005445

conv1.norm_fn.weight f4 [42]
0	0x3f7e63ce	0.9937104
1	0x3fa04252	1.2520239
2	0x3f8fb656	1.122752
3	0x3f8d11af	1.1021022
4	0x3f99ca55	1.2014872
5	0x3f5da39c	0.86577773
6	0x3fae1fd2	1.3603461
7	0x3f85868f	1.0431689
8	0x3f9483cb	1.160272
9	0x3f77d7e0	0.96813774
10	0x3f6980e7	0.91212314
11	0x3f604687	0.87607616
12	0x3f5d1d8c	0.8637321
13	0x3f67ec8b	0.9059531
14	0x3f81b0b8	1.0132055
15	0x3f8560fb	1.0420221
16	0x3f6b96e9	0.92027146
17	0x3f61cd0c	0.882035
18	0x3f548b46	0.83025014
19	0x3f7b2d89	0.98116356
20	0x3f931700	1.1491394
21	0x3f936fcb	1.1518492
22	0x3f66cbcb	0.90154713
23	0x3f64109b	0.8908784
24	0x3f98446c	1.1895881
25	0x3f70e2ed	0.9409626
26	0x3f986872	1.1906874
27	0x3f6cbd02	0.92475903
28	0x3f730a2b	0.9493739
29	0x3f77ef15	0.96849185
30	0x3f54e832	0.831668
31	0x3f6bb655	0.9207509
32	0x3f6030f9	0.87574726
33	0x3f822215	1.0166651
34	0x3f81df63	1.0146297
35	0x3f5fb231	0.87381274
36	0x3f835d73	1.0262893
37	0x3f6b0a90	0.9181299
38	0x3f535e8e	0.82566154
39	0x3f68954b	0.90852803
40	0x3f80d4fc	1.0064998
41	0x3f619946	0.881245

conv1.norm_fn.bias f4 [42]
0	0x3ddcbb5b	0.10777923
1	0x37d8a083	2.582395e-05
2	0x3d70d942	0.058800943
3	0x3cd8bb18	0.0264564
4	0x3cee4aa3	0.029088324
5	0x3d3ae6e4	0.04563035
6	0xbdec950e	-0.115518674
7	0xbcccf615	-0.025019685
8	0xbd848f6d	-0.06472669
9	0xbe2ea9f6	-0.17057022
10	0x3d8d77ad	0.06907592
11	0xbdb009ea	-0.08595641
12	0x3c2f7505	0.010709052
13	0x3d87ae8a	0.066250876
14	0xbd637054	-0.055527046
15	0xbe1812cf	-0.14850925
16	0xbdec9f37	-0.11553805
17	0xbe459b2e	-0.19297478
18	0xbd9417d6	-0.07231109
19	0xbdcb7747	-0.0993486
20	0xbc2bd135	-0.010486891
21	0xbd24ce2c	-0.040235683
22	0x3d2f8921	0.042855386
23	0xbe12e8f7	-0.14346682
24	0x3c085a45	0.008322303
25	0x3d323cdd	0.043515075
26	0x3b30d1b7	0.0026980469
27	0xbdfd4cf4	-0.12368193
28	0x3d7f8de9	0.062391195
29	0xbdcb3fd7	-0.09924286
30	0xbe8fa9a1	-0.28059104
31	0xbd4fb46a	-0.050709166
32	0xbde91a60	-0.11381984
33	0xbd1ef100	-0.038804054
34	0x3c15d681	0.00914538
35	0xbd77de4a	-0.060514726
36	0x3d9f00f1	0.077638514
37	0xbd4cb937	-0.049981322
38	0xbdb83f20	-0.08996415
39	0xbe173d7e	-0.14769551
40	0x3d1f8cd2	0.038952656
41	0x3caa9917	0.020824952

conv1.norm_fn.running_mean f4 [42]
0	0xbe306347	-0.17225371
1	0x3e1a8abe	0.15091988
2	0xbda554dc	-0.08072826
3	0x3e4dfc7b	0.20115845
4	0xbdf25dc4	-0.118342906
5	0x3e34f70b	0.17672364
6	0xbd64f522	-0.05589784
7	0x3e24fd7b	0.1611232
8	0xbdb93240	-0.090427876
9	0x3e19f932	0.15036467
10	0x3d871ecd	0.06597672
11	0xbf12bef7	-0.5732264
12	0x3dc965f2	0.09833898
13	0x3a048818	0.000505568
14	0x3d139f3a	0.036040522
15	0xbeadf207	-0.33973715
16	0xbfb3e6c0	-1.4054794
17	0xbf5bbaf3	-0.85832137
18	0xbf8f0478	-1.1173239
19	0xbe0b417d	-0.135992
20	0xbe1687c3	-0.14700226
21	0xbe378f69	-0.179258
22	0x3d505fbc	0.05087255
23	0x3e9ef5bb	0.31046852
24	0xbe0f4417	-0.13990818
25	0x3cff2ca9	0.031149225
26	0x3e1e99e8	0.15488398
27	0x3f690b8c	0.91033244
28	0xbd147d09	-0.036252055
29	0xbe2f5d45	-0.17125423
30	0xbd77855f	-0.060429927
31	0x3eb5fecd	0.3554596
32	0xbfa00410	-1.250124
33	0xbea4629e	-0.3210649
34	0x3e277b02	0.16355518
35	0xbe0c6ab2	-0.13712576
36	0xbe13520a	-0.14386764
37	0xbf0f25d6	-0.5591711
38	0x3dac6eee	0.08419596
39	0x3ec43292	0.38319832
40	0xbedb41a1	-0.42823508
41	0xbf0eec50	-0.55829334

conv1.norm_fn.running_var f4 [42]
0	0x3d63167e	0.055441372
1	0x3c614a03	0.013750556
2	0x3c4b1976	0.012396207
3	0x3c7f96d6	0.015599927
4	0x3cd2c140	0.025726914
5	0x3d5a6246	0.053316377
6	0x3c4ba1e1	0.012428732
7	0x3d143dd8	0.03619179
8	0x3b87a93f	0.0041400488
9	0x3cc04a7a	0.023473013
10	0x3d24fbdb	0.04027925
11	0x3d8248e4	0.06361559
12	0x3ce33d9f	0.027739344
13	0x3cf9f6f2	0.03051326
14	0x3cce2494	0.025163926
15	0x3cf7b4a8	0.03023751
16	0x3f401849	0.75037056
17	0x3e0edd8d	0.13951702
18	0x3e88bd67	0.26707003
19	0x3cfb3d7b	0.030668965
20	0x3b5a8d31	0.0033348317
21	0x3cb1281d	0.021625573
22	0x3cb9e948	0.022694245
23	0x3d8c7dcc	0.06859931
24	0x3be18acb	0.0068830005
25	0x3c2aff8b	0.010436903
26	0x3c8ec1aa	0.01742633
27	0x3e4bdfe2	0.19909623
28	0x3cf91c61	0.03040904
29	0x3cd77116	0.02629904
30	0x3c9e159e	0.019297417
31	0x3d2bb247	0.041918065
32	0x3ead6357	0.33864853
33	0x3d06c7f5	0.032905538
34	0x3b671474	0.0035259994
35	0x3c1596ca	0.009130189
36	0x3c8c8ebf	0.01715791
37	0x3d4ae631	0.049535934
38	0x3ce0b778	0.027431235
39	0x3cdca503	0.026934152
40	0x3dd22ab7	0.102620535
41	0x3d845964	0.064623624

res_blocks.0.conv1.conv.weight f4 [42, 42, 3, 3]
0	0x3e367278	0.17817104
1	0x3cf0a5fa	0.029376019
2	0x3e0478f1	0.1293676
3	0x3becbe4c	0.0072248336
4	0x3dc23379	0.09482474
5	0x3befd84e	0.0073194867
6	0xbb97a526	-0.0046278415
7	0xbe29a58e	-0.1656706
8	0xbd34824a	-0.044069566
9	0xbc75e997	-0.015009305
10	0xbde8064e	-0.113293275
11	0x3dbb65f7	0.091503076
12	0x3d620b75	0.055186708
13	0xbc0a9816	-0.008459112
14	0xbdc98e38	-0.09841579
15	0xbebcf3c1	-0.3690472
16	0xbe707a5e	-0.2348418
17	0xbe6c3b58	-0.23069513
18	0x3e258ca9	0.16166939
19	0x3d1b0301	0.03784466
20	0x3e00cd62	0.12578347
21	0x3d653146	0.055955194
22	0xbce5e271	-0.028062077
23	0x3da98c6f	0.08278739
24	0xb9bcf72a	-0.00036042306
25	0xbdde7d7a	-0.108637765
26	0xbe86b3ef	-0.26309153
27	0x3dbff28e	0.093724355
28	0x3dd4f25a	0.103977874
29	0xbb53aef6	-0.003230033
30	0x3d94669c	0.07246134
31	0x3db92db8	0.09041923
32	0x3de31204	0.110874206
33	0xbc9b9c96	-0.018995564
34	0x3d99ec0e	0.07515727
35	0x3d8236f4	0.06358138
36	0xbd52905c	-0.051407203
37	0x3e2e95d7	0.17049347
38	0x3e0c2213	0.13684873
39	0x3d294275	0.041323144
40	0x3e9d1bfd	0.30685416
41	0x3e98ddb7	0.29856655
42	0xbd88dbd3	-0.06682553
43	0x3e1ec6bc	0.15505499
44	0xbdb6d7f5	-0.08927909
45	0xbe10107e	-0.14068791
46	0xbd83dc2c	-0.06438479
47	0x398f44dc	0.0002732639
48	0x3c575098	0.013141774
49	0xbbea0d65	-0.00714271
50	0x3e06f97b	0.13181107
51	0x3d894dda	0.06704302
52	0x3e0da55f	0.13832615
53	0x3da2f158	0.07956189
54	0xbebf4bb8	-0.37362456
55	0x3bce2b2e	0.0062917685
56	0x3cc94aa8	0.024571732
57	0xbe3b6376	-0.1829966
58	0xbd93bfc8	-0.07214314
59	0xbd69aaa2	-0.057047494
60	0xbda02e8f	-0.0782138
61	0xbe0e2eb7	-0.13885008
62	0x3e1885e6	0.14894828
63	0xbd50bd9f	-0.050962087
64	0x3d57138e	0.052508883
65	0xbd95eec8	-0.073209345
66	0xbd5a3be6	-0.05327978
67	0x3d3bff03	0.045897495
68	0x3c914035	0.017730812
69	0xbee8240a	-0.45339996
70	0xbdd79e30	-0.10528219
71	0xbd850556	-0.064951584
72	0xbe0d2f95	-0.13787682
73	0x3b9a9042	0.004716904
74	0xbe136e88	-0.14397633
75	0x3e3ec46a	0.18629614
76	0xbd49a60c	-0.04923062
77	0x3d186210	0.037202895
78	0xbdb917f1	-0.090377696
79	0xbe69b21a	-0.22821847
80	0xbd1682f0	-0.036745965
81	0xbe4a20f9	-0.1973914
82	0x3d51d6c8	0.051230222
83	0x3d115529	0.035481606
84	0xbda51cbf	-0.080621235
85	0x3db0e891	0.086381085
86	0x3e2b03a1	0.16700603
87	0xbdad3491	-0.08457292
88	0x3e218c7e	0.1577625
89	0xb9b1bb96	-0.00033899833
90	0xbe321169	-0.17389454
91	0x3d410d56	0.04713186
92	0x3cb5c6c1	0.0221895
93	0xbd186ec1	-0.037215
94	0x3d01430a	0.031558074
95	0xbd99cea6	-0.07510118
96	0xbd76100d	-0.0600739
97	0xbd8cce5c	-0.068752974
98	0xbc8756a1	-0.0165208
99	0xbe077d73	-0.13231449
100	0x3dc9fb1b	0.09862348
101	0x3e178cfa	0.14799872
102	0xbcf6987c	-0.030102007
103	0x3e321250	0.17389798
104	0x3da064ee	0.07831751
105	0x3dad2aff	0.084554665
106	0x3a1070cc	0.0005509972
107	0x3d92bb76	0.071646616
108	0x3d520001	0.051269535
109	0x3e131f04	0.143673
110	0x3d27af1c	0.04093848
111	0xbe23f860	-0.16012716
112	0x3d8a058b	0.067393385
113	0x3cbf927c	0.023385279
114	0xbe6b38bc	-0.22970861
115	0x3cee4ed3	0.02909032
116	0xbd35f947	-0.044427183
117	0xbcfe8020	-0.031066954
118	0x3cb8782b	0.022518238
119	0xbdd0130c	-0.10159883
120	0x3e1ad165	0.1511894
121	0x3dc5e8f9	0.09663577
122	0x3d562940	0.052285433
123	0xbde01261	-0.109410055
124	0xbe0d6d64	-0.1381126
125	0x3d3b5e9c	0.045744523
126	0xbe2e33ce	-0.1701195
127	0xbbc096fc	-0.0058773737
128	0x3d4b82c1	0.049685244
129	0x3c812711	0.015765699
130	0xbd06efde	-0.0329436
131	0x3d265716	0.040610395
132	0xbd0f21d9	-0.03494439
133	0xbe63c13e	-0.22241685
134	0xbd905ac8	-0.07048565
135	0xbd5a253d	-0.05325817
136	0xbe07ea81	-0.1327305
137	0x3d61f429	0.05516449
138	0x3e7a9f44	0.24474818
139	0x3d7bc20f	0.061464366
140	0x3e060ca5	0.13090761
141	0xbd4e4b87	-0.050364997
142	0x3cdd0e77	0.026984436
143	0x3d71d225	0.0590383
144	0x3d6ca815	0.057777483
145	0xbd8f4751	-0.069960244
146	0x3db467ff	0.08808898
147	0x3e0cb720	0.13741732
148	0x3dcb8ca9	0.09938938
149	0x3bde624d	0.0067866207
150	0x3d980fe4	0.07424906
151	0xbdacfa27	-0.0844615
152	0x3e7697fd	0.24081416
153	0xbdb90990	-0.09035027
154	0xbde377f7	-0.11106866
155	0xbcbc7bb1	-0.0230082
156	0x3e3b92f8	0.18317783
157	0x3d9775fd	0.07395551
158	0x3e3b976f	0.18319486
159	0x3ca4af08	0.020102993
160	0xbd90a15c	-0.07062027
161	0x3e2726ff	0.1632347
162	0x3d81bdfb	0.06335064
163	0x3da3f5d5	0.08005873
164	0x3a81fc46	0.0009917102
165	0x3d92fbcc	0.07176933
166	0xbbdfe85a	-0.0068331184
167	0x3ddf27b4	0.10896245
168	0x3de095b6	0.10966055
169	0xbdb0eae3	-0.08638551
170	0xbd72a42d	-0.0592386
171	0x3d94d38a	0.072669104
172	0x3e0431cf	0.12909625
173	0x3d0ce584	0.03439857
174	0x3e5bf9c5	0.21481998
175	0x3dcbd3a2	0.09952475
176	0x3dfd217d	0.12359903
177	0x3dafff25	0.08593587
178	0xbe1a8df3	-0.15093212
179	0x3d65550f	0.05598932
180	0x3d2e03ed	0.042484213
181	0x3da4494c	0.08021793
182	0xbbb7cd83	-0.0056092157
183	0xbcbe1e96	-0.023207944
184	0x3c0c7588	0.0085729435
185	0x3d808692	0.06275667
186	0xbcbfe75f	-0.023425756
187	0xbdbaf368	-0.09128457
188	0x3d2ac2d9	0.041689727
189	0x3c50d20b	0.012745391
190	0xbd17d7e4	-0.037071124
191	0x3cd093fb	0.025461188
192	0xbd9bb056	-0.07601993
193	0xbddd47b0	-0.10804689
194	0x3d1677dd	0.036735404
195	0xbde02e00	-0.10946274
196	0xbdfc2e62	-0.12313534
197	0x3dd5cf72	0.10439958
198	0x3ca08dae	0.019598808
199	0x3d1355b7	0.035970416
200	0x3b5316c9	0.0032209626
201	0x3d27b733	0.040946197
202	0xbc5dc8bf	-0.013536631
203	0xbdfed41f	-0.12442803
204	0xbd5e7bf4	-0.05431743
205	0xbd022700	-0.031775475
206	0xbdc82287	-0.097722106
207	0x3dd22b88	0.10262209
208	0x3d58976f	0.052878793
209	0xbe3aa15f	-0.1822562
210	0x3e40c719	0.1882595
211	0x3dfccc98	0.12343711
212	0x3d6a84d5	0.057255585
213	0x3d7fc617	0.062444773
214	0xbd78be4c	-0.060728356
215	0xbcc00f4c	-0.023444794
216	0xbe21ec36	-0.15812764
217	0xbd3d8a43	-0.046274435
218	0xbd383383	-0.044971
219	0xbe080cb1	-0.13286091
220	0xbccbce13	-0.024878537
221	0x3e02bbb6	0.12766919
222	0xbeb9fc17	-0.36325142
223	0xbddcfdfa	-0.1079063
224	0xbcc58e7e	-0.024115797
225	0xbe3738a1	-0.17892696
226	0x3cb31aac	0.021863304
227	0x3e100cf1	0.14067437
228	0x3c5e5ede	0.013572423
229	0xbb0262c9	-0.0019895306
230	0x3cfbbb8e	0.030729081
231	0xbe56e2ce	-0.20984957
232	0x3dd87124	0.10568455
233	0xbdc6552f	-0.09684216
234	0xbc834186	-0.016022455
235	0x3d8f1847	0.069870524
236	0x3e1815a7	0.1485201
237	0xbe09bdfa	-0.13451377
238	0x3d9b2621	0.07575632
239	0x3e17388d	0.14767666
240	0x3e169992	0.1470702
241	0x3cfcf995	0.030880729
242	0x3e6280e2	0.22119477
243	0x3cb23af0	0.02175662
244	0x3d9cf61a	0.07664128
245	0xbc6dadff	-0.014506816
246	0x3dcd2a7d	0.100178696
247	0x3e438762	0.19094613
248	0xbc104d06	-0.008807426
249	0xbc16dc57	-0.009207807
250	0x3e1c3fd5	0.15258725
251	0xbcfa5949	-0.030560153
252	0x3c1ed2e8	0.009693839
253	0xbc989255	-0.018624464
254	0xbd3696e9	-0.044577513
255	0xbd055098	-0.032547563

res_blocks.0.conv1.conv.bias f4 [42]
0	0xbd1c750a	-0.038197555
1	0xbc11ca4f	-0.008898332
2	0x3d456cd9	0.04819951
3	0x3c49de9e	0.0123211425
4	0x3d376e5a	0.044782974
5	0xbc80715d	-0.015679056
6	0x3c439cf8	0.01193928
7	0xbd29ae63	-0.041426074
8	0x3d336fa9	0.04380766
9	0xbc3d9523	-0.0115712015
10	0x3b733670	0.0037111305
11	0xbbb8ee8f	-0.005643673
12	0xbcb2de01	-0.021834375
13	0xbbe39890	-0.006945677
14	0x3ce8bd55	0.028410593
15	0xbd05a52f	-0.032628234
16	0xbd2e6779	-0.042579148
17	0x3a4e0993	0.0007859703
18	0xbcd325bc	-0.02577483
19	0xbd03de55	-0.032194454
20	0xbd0db3eb	-0.03459541
21	0x3d296fe1	0.04136646
22	0xbd3ef60f	-0.04662138
23	0x3c330aaf	0.01092784
24	0x3c07a883	0.008279922
25	0xbd3b0176	-0.04565569
26	0xbc4dd3b8	-0.012562685
27	0xbcaf10af	-0.02137026
28	0x3d0ffae0	0.035151362
29	0xbc99a81b	-0.018756917
30	0x3bfc7a62	0.007705019
31	0xbcdc4ee5	-0.026893089
32	0xbd22b3d0	-0.039722264
33	0x3d2786d4	0.040900066
34	0xbd2cf694	-0.042227343
35	0x3c021ffb	0.007942195
36	0x3d43eb56	0.047831856
37	0x3c58028a	0.013184199
38	0xbcf3c451	-0.029756697
39	0xbc1b1c03	-0.009467128
40	0x3c74c79a	0.014940167
41	0x3cff69c5	0.031178365

res_blocks.0.conv1.norm_fn.weight f4 [42]
0	0x3f528c5a	0.8224541
1	0x3f645664	0.8919432
2	0x3f399059	0.7248588
3	0x3f5b9097	0.857675
4	0x3f341dd3	0.7035801
5	0x3f4a749f	0.790842
6	0x3f39ef71	0.72630984
7	0x3f509f20	0.81492805
8	0x3f388ed3	0.7209293
9	0x3f66ef40	0.90208817
10	0x3f284d5b	0.65743035
11	0x3f6019a1	0.87539107
12	0x3f80f7be	1.0075605
13	0x3f541860	0.82849693
14	0x3f6d4f53	0.92699164
15	0x3f848f07	1.0356148
16	0x3f7f7a62	0.99796116
17	0x3f710fe1	0.94164854
18	0x3f5f1122	0.8713552
19	0x3f4f6ca7	0.81025165
20	0x3f4fe1e8	0.8120408
21	0x3f624312	0.8838359
22	0x3f554bf6	0.8331903
23	0x3f801cc1	1.0008775
24	0x3f66e332	0.9019042
25	0x3f5e34cf	0.8679933
26	0x3f51601c	0.81787276
27	0x3f6f75d4	0.93539166
28	0x3f6928a2	0.91077626
29	0x3f455c1f	0.7709369
30	0x3f70ec98	0.94111013
31	0x3f3a6475	0.72809535
32	0x3f4ce344	0.8003428
33	0x3f53d00d	0.82739335
34	0x3f82c0dd	1.0215107
35	0x3f83f0ce	1.0307863
36	0x3f58cd77	0.84688514
37	0x3f53af03	0.8268892
38	0x3f60da9f	0.8783359
39	0x3f44043e	0.76568973
40	0x3f82c476	1.0216205
41	0x3f5c7431	0.86114794

res_blocks.0.conv1.norm_fn.bias f4 [42]
0	0xbe4e463a	-0.20143977
1	0xbe0da083	-0.13830762
2	0xbe631480	-0.22175789
3	0x3cd19cc1	0.025587441
4	0xbec2e236	-0.3806321
5	0x3d25a114	0.04043682
6	0xbea8b8c0	-0.32953453
7	0xbe2f6698	-0.1712898
8	0xbd88d1d4	-0.066806465
9	0xbd78eb76	-0.060771428
10	0xbe077c60	-0.13231039
11	0xbd3d301a	-0.04618845
12	0xbded68d8	-0.11592263
13	0xbd63bff3	-0.05560298
14	0xbc9b69a1	-0.018971266
15	0xbdeb3a42	-0.11485721
16	0xbd03fcf5	-0.03222366
17	0xbd8c8d17	-0.06862848
18	0x3a7bd23c	0.00096062175
19	0xbe4777f0	-0.19479346
20	0xbc2f50ee	-0.0107004475
21	0xbe2088f7	-0.15677248
22	0x3e04eb8d	0.1298048
23	0x3d33d88a	0.04390768
24	0xbeaace85	-0.33360687
25	0xbdc6bd65	-0.09704093
26	0xbd16b652	-0.036794968
27	0xbd85baf8	-0.06529802
28	0xbd309b45	-0.043116827
29	0x3cf45b85	0.029828796
30	0x3c8405f6	0.016116124
31	0xbda9d05f	-0.08291697
32	0xbdd5860f	-0.1042596
33	0xbe65200f	-0.2237551
34	0xbdfa1036	-0.12210123
35	0xbe9162cc	-0.2839569
36	0xbe25e97b	-0.16202347
37	0x3b94f388	0.0045456327
38	0xbda56512	-0.08075918
39	0xbe1dd621	-0.15413715
40	0xbecef3fc	-0.4042052
41	0xbe0e5eac	-0.13903302

res_blocks.0.conv1.norm_fn.running_mean f4 [42]
0	0x3f9a13d0	1.2037296
1	0xc046d6bf	-3.106857
2	0xbfc56242	-1.5420611
3	0xbe96f907	-0.29486868
4	0x3ea7342a	0.32656986
5	0xbe273da9	-0.16332115
6	0x3f70a233	0.93997496
7	0xbe265b3b	-0.16245739
8	0x3d865d79	0.06560797
9	0xbed79d01	-0.42111972
10	0x3c4fb114	0.012676496
11	0x40098e68	2.1493168
12	0xc0133a81	-2.3004458
13	0xbfb70039	-1.4296943
14	0xc033cde1	-2.8094409
15	0xc0744874	-3.8169222
16	0xbf480206	-0.7812809
17	0x40566054	3.3496294
18	0xc0354e99	-2.8329222
19	0xbf82a0bf	-1.0205306
20	0xbfc22188	-1.5166483
21	0x40343a04	2.816041
22	0x3ecb8d0b	0.39756045
23	0xbebb142e	-0.36538833
24	0xbf09160b	-0.5354926
25	0xbeb2e197	-0.34937736
26	0xbf15b3be	-0.5847739
27	0x409f60d1	4.9805684
28	0xbea466e7	-0.32109758
29	0xbf4bbb89	-0.7958303
30	0xc021cba7	-2.528055
31	0x3f87e5df	1.0617026
32	0xc067694e	-3.6158023
33	0xbdeee431	-0.11664618
34	0xc00c9b2d	-2.1969712
35	0xbfbbdbd5	-1.4676462
36	0xbf02fde6	-0.5116867
37	0xbf9b3ce9	-1.2127963
38	0x3f93489a	1.1506531
39	0xbf6cf882	-0.9256669
40	0xbfdd51e3	-1.7290615
41	0x3f80bf43	1.0058368

res_blocks.0.conv1.norm_fn.running_var f4 [42]
0	0x412938c9	10.576364
1	0x42386d03	46.106457
2	0x412a565a	10.646082
3	0x40502894	3.2524767
4	0x40eb3cd6	7.3511763
5	0x405878ad	3.3823655
6	0x3fea86ea	1.8322423
7	0x4040b8e2	3.0112844
8	0x4117c89d	9.486478
9	0x408c8eb8	4.3924217
10	0x40a1fdd3	5.0622344
11	0x41ccd57e	25.604244
12	0x41699347	14.598456
13	0x411c1063	9.754001
14	0x420fffcf	35.999813
15	0x422fbef2	43.93647
16	0x4050b4f1	3.2610438
17	0x42610c7c	56.26219
18	0x41fd32f1	31.649874
19	0x407abc98	3.9177608
20	0x4030f661	2.7650378
21	0x4121299f	10.072661
22	0x401a79ef	2.4136922
23	0x4037fa40	2.874649
24	0x40f6162d	7.690207
25	0x40126887	2.2876298
26	0x40806fb8	4.0136375
27	0x4239a604	46.412125
28	0x40c99abc	6.3001385
29	0x40803fdf	4.007797
30	0x4188a0b3	17.078466
31	0x41019123	8.097934
32	0x4213375e	36.80407
33	0x40d832b6	6.7561903
34	0x41a3abd5	20.458902
35	0x40e9826d	7.297171
36	0x4118248f	9.508925
37	0x40abffc4	5.3749714
38	0x4186faf7	16.872541
39	0x407dc43e	3.9651027
40	0x4100879c	8.033108
41	0x410be77c	8.744015

res_blocks.0.conv2.conv.weight f4 [42, 42, 3, 3]
0	0x3d9f6165	0.077822484
1	0xbde42646	-0.111401126
2	0x3ce653ce	0.028116133
3	0x3e261849	0.16220202
4	0x3d0f82bc	0.035036787
5	0x3cda8bbb	0.026677957
6	0xbd9a33ae	-0.07529388
7	0x3d99dfa3	0.075133584
8	0x3e1714dc	0.14754051
9	0x3e03ee3a	0.12883845
10	0x3d43f4e0	0.047840953
11	0xbdfc39ec	-0.12315735
12	0x3d956c5a	0.07296057
13	0xbd8d30bb	-0.0689406
14	0x3d99a80b	0.07502755
15	0x3e3e30bf	0.18573283
16	0x3e5d6de8	0.21623957
17	0x3d8deaaa	0.06929524
18	0xbe4f3340	-0.20234394
19	0xbe4eea34	-0.20206529
20	0xbcca950b	-0.024729272
21	0xbd542da0	-0.051801324
22	0x3ce28d62	0.027655307
23	0xbe1ca5ee	-0.15297672
24	0xbc473496	-0.012158534
25	0x3e02a8ae	0.12759659
26	0x3d74ca78	0.0597634
27	0x3d593a3e	0.05303406
28	0x3e04c617	0.1296619
29	0x3e02c144	0.12769037
30	0x3e2af84e	0.16696283
31	0x3e993723	0.29924878
32	0x3e16eaf0	0.14738059
33	0xbe25fd56	-0.16209921
34	0xbda16146	-0.078798816
35	0xbe4397ab	-0.19100825
36	0xbc49a810	-0.012308136
37	0x3d16f789	0.03685716
38	0x3e108070	0.14111495
39	0x3d7b047c	0.061283574
40	0x3de0574a	0.10954149
41	0x3c9f0d76	0.019415598
42	0xbd2f8cee	-0.04285901
43	0xbddbca5e	-0.10731958
44	0xbd90f46f	-0.07077872
45	0xbd43368d	-0.047659446
46	0xbd23c3c1	-0.039981607
47	0xbe10f797	-0.14156948
48	0x3a56fb93	0.00082009396
49	0x3e128b1d	0.1431088
50	0xbd54537a	-0.051837422
51	0xbe259fe8	-0.1617428
52	0x3cbff8cd	0.023434067
53	0xbdc7197c	-0.09721658
54	0x3e056d4f	0.13029979
55	0x3e5e7256	0.21723303
56	0x3e221f12	0.15832165
57	0x3d438c34	0.04774113
58	0x3d1b62c9	0.037936006
59	0x3e1fe9f5	0.15616591
60	0xbc9c4a86	-0.019078504
61	0x3dae9fc9	0.0852657
62	0x3d45d0bb	0.048294764
63	0xbd513ba6	-0.051082276
64	0x3b1538b5	0.0022769396
65	0x3bc3e3ae	0.0059780693
66	0xbd0da3c8	-0.034580022
67	0xbabebd40	-0.001455225
68	0x3d96aaf4	0.073568255
69	0xbe2ba97a	-0.16763869
70	0xbce47494	-0.02788762
71	0xbd06139a	-0.032733537
72	0xbd22d9fb	-0.039758664
73	0xbd6eae21	-0.05827153
74	0xbe26c0e6	-0.16284522
75	0xbd9dd53a	-0.07706685
76	0xbd1d7df5	-0.0384502
77	0xbdde2ee2	-0.10848786
78	0xbc2c8868	-0.010530569
79	0xbc43dafb	-0.0119540645
80	0x3ddb8cd8	0.10720223
81	0xbb8561b6	-0.004070486
82	0xbe3c4871	-0.18387009
83	0xbe39ffaa	-0.18163934
84	0x3e2a7be7	0.16648827
85	0x3d3ac2b0	0.045595825
86	0xbdd7916f	-0.10525786
87	0x3e72d6d9	0.2371477
88	0xbd705ae8	-0.058680445
89	0xbd7cb33a	-0.06169436
90	0x3cf9c0b6	0.0304874
91	0x3d00976b	0.031394403
92	0x3e31d3b0	0.17365909
93	0x3d271c99	0.040798757
94	0x3d92046f	0.07129752
95	0xbc8c252e	-0.017107572
96	0x3c0b54e6	0.008504128
97	0x3dc131ca	0.09433325
98	0x3ce8dee8	0.028426602
99	0xbb5778ba	-0.0032878355
100	0x3d8f0e9e	0.0698521
101	0xbd3f677c	-0.04672955
102	0x3de3b174	0.11117831
103	0x3d8df5b4	0.0693163
104	0x3b9ccfd5	0.0047855177
105	0xbd6e3c45	-0.058162946
106	0x3d911ef5	0.07085983
107	0x3caab9db	0.020840576
108	0x3e3a90fa	0.18219367
109	0x3e5d8862	0.21634057
110	0x3e05ca1b	0.13065378
111	0x3d71b6ba	0.059012152
112	0x3e7e5325	0.24836405
113	0xbbc98d33	-0.0061508655
114	0x3dea8684	0.11451438
115	0x3df485ca	0.11939581
116	0x3cf89435	0.030344108
117	0x3e5f1291	0.21784426
118	0x3d38d875	0.045128305
119	0xbdd3fab7	-0.103505544
120	0xba37a782	-0.00070058566
121	0x3d71278f	0.058875617
122	0xbd4cf023	-0.0500337
123	0x3e5228af	0.20523332
124	0xbcf6ff52	-0.030151043
125	0x3dc6789a	0.09690972
126	0x3d85282d	0.065018035
127	0x3d2b4283	0.041811477
128	0x3b0700d2	0.0020599854
129	0x3d25b44d	0.04045515
130	0x3e10af60	0.141294
131	0xbce015c3	-0.027354127
132	0x3da4d8e5	0.08049182
133	0xbd5b780f	-0.053581294
134	0xbde58b65	-0.11208228
135	0x3eb7dbc2	0.3590985
136	0x3e489374	0.19587499
137	0x3d4f0c6b	0.050548952
138	0x3dc96ded	0.0983542
139	0x3e4686a2	0.19387296
140	0x3e4595d1	0.19295432
141	0x3e51ee31	0.20501019
142	0x3e22b9dc	0.15891212
143	0x3cd6a7c1	0.026203038
144	0xbbdb15b0	-0.006685935
145	0xbd519fd8	-0.05117783
146	0xbcf6f674	-0.030146815
147	0x3d355893	0.044273924
148	0x3d699de6	0.05703535
149	0xbbb5fd3b	-0.005553869
150	0x3db5d754	0.08878961
151	0xbc4deb2b	-0.012568275
152	0x3dd38c00	0.10329437
153	0xbd6212df	-0.055193778
154	0xbe275b9d	-0.16343541
155	0x3d487b34	0.04894562
156	0x3de515ce	0.111857995
157	0xbd607329	-0.054797325
158	0x3d0619c4	0.032739416
159	0xbcf1790e	-0.029476669
160	0xbb979c74	-0.004626805
161	0x3dd7ea80	0.10542774
162	0x3bd022e3	0.006351815
163	0x3cf7806e	0.030212607
164	0xbdb092b0	-0.086217284
165	0x3e834c8b	0.25644335
166	0x3d864d1a	0.06557675
167	0x3dedeb6c	0.11617169
168	0x3e428eff	0.18999861
169	0x3e4232ea	0.18964735
170	0x3ddd55d6	0.108073875
171	0xbdfd534f	-0.123694055
172	0x3e210072	0.15722826
173	0x3d447066	0.047958754
174	0x3dc6cf54	0.097075135
175	0x3e1ba4f3	0.15199642
176	0x3cac3331	0.021020504
177	0x3a8dbc60	0.0010813586
178	0xbd2ad606	-0.041708015
179	0xbd70a167	-0.058747675
180	0x3d2b8262	0.04187239
181	0xbd38d71e	-0.045127027
182	0xbe04344f	-0.12910579
183	0xbe113ac3	-0.14182572
184	0x3c250630	0.010072276
185	0x3d5786c7	0.052618768
186	0x3d5d9ccc	0.05410461
187	0xbc07648b	-0.008263717
188	0x3e806d11	0.2508321
189	0x3c84d4de	0.016214784
190	0x3dc86d26	0.097864434
191	0x3e30dbb2	0.17271307
192	0x3e021cb6	0.12706265
193	0x3e0977d6	0.1342462
194	0x3df3c6f9	0.119031854
195	0x3d39aef8	0.04533288
196	0xbcf36464	-0.029710956
197	0x3e07a7ef	0.13247655
198	0xbd7a9875	-0.06118055
199	0xbd6cce42	-0.05781389
200	0xbe3115f8	-0.17293537
201	0xbdac56b4	-0.08414975
202	0x3d537ab1	0.05163068
203	0x3da83a36	0.08214228
204	0xbe14247e	-0.14467046
205	0x3c9ac112	0.018890891
206	0x3dd30d49	0.10305268
207	0x3d9b59a1	0.07585455
208	0xbdd300de	-0.103029
209	0x3ca9a914	0.020710506
210	0x3c8aec8b	0.016958496
211	0xbd9e00bc	-0.07714984
212	0xbd4d0a05	-0.050058383
213	0xbdfc7c26	-0.12328367
214	0x3ce56799	0.0280035
215	0xbdaf6897	-0.08564871
216	0x3dcc6c8c	0.09981641
217	0x3da5588b	0.08073529
218	0x3cbcb54d	0.02303567
219	0xbd4f44eb	-0.050602835
220	0xbcc910e8	-0.024544194
221	0xbe12e2eb	-0.14344375
222	0xbcc58fba	-0.024116386
223	0xbd2391fb	-0.03993414
224	0xbd9bed53	-0.076136254
225	0xbddfd9d6	-0.10930221
226	0x3d675409	0.056476627
227	0x3c894140	0.016754746
228	0xbc4bf3b9	-0.012448245
229	0xbda2db3c	-0.07951972
230	0xbdb9e17c	-0.09076211
231	0xbde2a974	-0.11067477
232	0xbe50f489	-0.20405783
233	0xbe076734	-0.13222963
234	0xbcd388e7	-0.025822116
235	0xbe42ffd8	-0.19042909
236	0x3c05c2b2	0.008164095
237	0xbd1a5167	-0.037675288
238	0x3d351885	0.044212837
239	0xbdf1d5d2	-0.11808361
240	0xbd3baf8c	-0.04582171
241	0xbb16ae81	-0.0022992196
242	0xbe0480fa	-0.12939826
243	0x3caa0b8a	0.020757455
244	0x3d04d6ae	0.032431297
245	0x3e3062cb	0.17225187
246	0x3d952be1	0.0728376
247	0xbc0422dc	-0.008064952
248	0xbd23776e	-0.03990882
249	0xbc823192	-0.015892778
250	0x3df99c11	0.121879704
251	0x3dd59362	0.10428502
252	0x3dcbd7a4	0.099532396
253	0x3ce2b246	0.027672898
254	0xbc84031d	-0.016114766
255	0x3d852d0c	0.06502733

res_blocks.0.conv2.conv.bias f4 [42]
0	0x3d378e3c	0.04481338
1	0x3cc684eb	0.024233302
2	0xbc2e9f05	-0.01065803
3	0x3ce79715	0.028270284
4	0x3d4086c5	0.047003526
5	0x3c5474f3	0.012967336
6	0x3ccd5940	0.025066972
7	0xbbbfa48c	-0.005848473
8	0x3cea996e	0.028637614
9	0x3b924edf	0.0044649686
10	0x3d063308	0.03276351
11	0x3d50f2b8	0.051012725
12	0x3c6b1d35	0.014350225
13	0x3d03307c	0.03202866
14	0x3d23975c	0.03993927
15	0x3d1d3f9c	0.03839074
16	0x3ce94838	0.02847682
17	0x3a7b7a63	0.0009593127
18	0xbce1bd10	-0.027555972
19	0xbd00e7d8	-0.031471103
20	0xbd3facb4	-0.046795562
21	0xbd3b048e	-0.04565864
22	0x3d2a599b	0.04158936
23	0x3d391b3b	0.045191985
24	0xbcc35a35	-0.023846725
25	0xbc561450	-0.013066366
26	0x3d00da1a	0.031457998
27	0xbcb72bb0	-0.022359699
28	0xbc41e079	-0.011833304
29	0xbd0a4fa2	-0.03376735
30	0xbd1d1710	-0.038352072
31	0xbcdbe0cc	-0.02684059
32	0x3d1053c8	0.03523615
33	0xbd073488	-0.033009082
34	0x3b066f39	0.0020513071
35	0xbd4de575	-0.050267655
36	0xbd362e8d	-0.044477988
37	0xbcd0b0a6	-0.025474858
38	0x3928ca19	0.00016097016
39	0x3ce79814	0.028270759
40	0xbd175a8d	-0.03695159
41	0x3d220276	0.03955313

res_blocks.0.conv2.norm_fn.weight f4 [42]
0	0x3fb04703	1.3771671
1	0x3f9a8dd8	1.2074537
2	0x3f7adabb	0.97990006
3	0x3f9c8e4a	1.2230923
4	0x3f8a6e6f	1.0814952
5	0x3ff68d01	1.9261781
6	0x3f7f78f0	0.9979391
7	0x3f9d8dc3	1.2308887
8	0x3fad122e	1.3521173
9	0x3fdf28a1	1.7434274
10	0x3f8ccfd2	1.1000922
11	0x3f961748	1.1725855
12	0x3f7525b5	0.9576066
13	0x3fccbdbd	1.5995404
14	0x3ffc1127	1.9692734
15	0x3f902470	1.126112
16	0x3fcb512d	1.5884148
17	0x3f836423	1.0264934
18	0x3f997f85	1.1992041
19	0x3f7ff1c8	0.99978304
20	0x3fb40960	1.4065361
21	0x3f69130f	0.91044706
22	0x3f9e2cda	1.2357438
23	0x3f98d7a2	1.1940806
24	0x3f9affce	1.2109315
25	0x3fc65a04	1.549622
26	0x3f8dc828	1.1076708
27	0x3fc737e9	1.5563937
28	0x3f9a50bf	1.2055892
29	0x3ff989ab	1.9495138
30	0x3f808ae2	1.0042384
31	0x3fb36412	1.4014914
32	0x3fd2d27f	1.6470488
33	0x3fd899c7	1.6921929
34	0x3fa34300	1.2754822
35	0x3f90dfc2	1.1318285
36	0x3faab1c5	1.3335501
37	0x3fbf9041	1.4965898
38	0x3f943295	1.1577936
39	0x3fde5e50	1.7372532
40	0x3f986169	1.1904727
41	0x3f9602b1	1.1719571

res_blocks.0.conv2.norm_fn.bias f4 [42]
0	0xbf1f6bdf	-0.62273973
1	0xbf1b2c0d	-0.6061409
2	0xbe4c685c	-0.19961685
3	0xbe397ef5	-0.18114837
4	0xbe340f1f	-0.17583893
5	0x3e8e2d6b	0.27769026
6	0xbeb685af	-0.35648867
7	0xbde2394e	-0.11046086
8	0x3da3c66a	0.07996829
9	0x3e3df94c	0.1855213
10	0xbe4bd935	-0.19907077
11	0xbe08c2bb	-0.13355534
12	0xbe646316	-0.22303423
13	0x3cdcfbb3	0.026975488
14	0x3ed5cb46	0.41756648
15	0xbd67921b	-0.05653582
16	0xbc15be3d	-0.009139595
17	0xbe6a7ee5	-0.22899969
18	0x3e55cf99	0.20879973
19	0xbe817a48	-0.25288606
20	0x3d64dc4e	0.05587416
21	0xbc723d30	-0.014785096
22	0x3df6809c	0.12036249
23	0xbd814b37	-0.06313174
24	0xbee8c86e	-0.45465416
25	0xbe7e464e	-0.24831507
26	0x3da98019	0.08276386
27	0x3e615005	0.22003181
28	0xbe10c6e9	-0.14138378
29	0x3e90da51	0.28291562
30	0x3d400bc6	0.046886228
31	0xbd86b33a	-0.065771535
32	0x3d8c1207	0.06839376
33	0xbf12e04c	-0.573735
34	0xbe9814c9	-0.29703358
35	0xbe92de66	-0.28685302
36	0x3e0d0ad9	0.1377367
37	0x3d9a0798	0.0752098
38	0xbe848aa7	-0.25887033
39	0x3dae2b73	0.08504381
40	0xbe2dab9a	-0.16959992
41	0xbdc9f245	-0.09860662

res_blocks.0.conv2.norm_fn.running_mean f4 [42]
0	0x400ba887	2.182161
1	0x400ba536	2.1819587
2	0xbf916533	-1.1359009
3	0x3dfb9675	0.12284557
4	0x3e540a19	0.20706977
5	0x3ee2faaf	0.4433188
6	0x3f24b26e	0.6433476
7	0xbdc43996	-0.09581296
8	0x3eb9015e	0.36133856
9	0xbf2f97db	-0.6859109
10	0xc00f67ff	-2.2407224
11	0xbe82020a	-0.2539218
12	0xc03c6a29	-2.9439795
13	0xbf57447c	-0.84088874
14	0xbf0b8007	-0.5449223
15	0xc031ea52	-2.7799268
16	0xbf3693d2	-0.71319306
17	0xc083cfc8	-4.119114
18	0xbd6f9d75	-0.058499772
19	0x3f88c100	1.0683899
20	0xbe017612	-0.12642696
21	0xbec645e1	-0.38725188
22	0xbe838a8a	-0.25691634
23	0x3f6811fa	0.9065243
24	0xbf956f75	-1.1674639
25	0x3fdef2cd	1.7417847
26	0xc03a11f3	-2.9073455
27	0xbf7ffbc0	-0.99993515
28	0x3f2d9922	0.6781179
29	0xbf845b70	-1.0340405
30	0x3fb6df37	1.428687
31	0xbf09a831	-0.53772265
32	0xbece4c8a	-0.4029277
33	0xbe023d6c	-0.12718743
34	0xbf4c305a	-0.7976128
35	0xbf945ad5	-1.159022
36	0x3f2481b5	0.6426042
37	0xc01342bf	-2.3009489
38	0xc051c423	-3.2775962
39	0xbf5ccb95	-0.8624814
40	0xbfc6318b	-1.5483869
41	0x3d08bbf6	0.03338238

res_blocks.0.conv2.norm_fn.running_var f4 [42]
0	0x402c7ba5	2.6950467
1	0x4056ad93	3.3543441
2	0x401b92ec	2.4308424
3	0x3f38488f	0.71985716
4	0x403c739b	2.944556
5	0x3f25e4c6	0.64802206
6	0x40759e19	3.8377745
7	0x3facfcb0	1.3514614
8	0x3ffc8c51	1.9730321
9	0x3f42588c	0.7591636
10	0x3fe47d69	1.7850772
11	0x40144edc	2.3173132
12	0x41071740	8.443176
13	0x3ee22adf	0.44173333
14	0x3f4b27a5	0.7935737
15	0x40802d36	4.005519
16	0x3f5bab74	0.8580849
17	0x408092f7	4.01794
18	0x3f7e632f	0.9937009
19	0x40092473	2.1428497
20	0x3fa70418	1.3048124
21	0x408c5442	4.3852854
22	0x3f7a0383	0.9766161
23	0x3fdcb799	1.724353
24	0x3ffc3a60	1.9705315
25	0x3fa6c932	1.303015
26	0x403723e8	2.8615665
27	0x4038a7a0	2.885231
28	0x3fada9a3	1.3567394
29	0x3ec9e87f	0.39435193
30	0x3fda3c96	1.7049739
31	0x3f39926d	0.72489053
32	0x3f1abeaf	0.6044721
33	0x3e7b1920	0.24521303
34	0x3fb0add2	1.3803046
35	0x3ffe665a	1.9874985
36	0x3f87729f	1.0581855
37	0x400be66c	2.1859388
38	0x402fef7a	2.7489915
39	0x3f73f0df	0.95289415
40	0x40236ff4	2.553708
41	0x3f76b538	0.9637027

res_blocks.1.conv1.conv.weight f4 [42, 42, 3, 3]
0	0xbd79620a	-0.060884513
1	0xbe526677	-0.205469
2	0x3d875468	0.06607896
3	0xbe6667ab	-0.22500484
4	0xbdc97b14	-0.098379284
5	0xbda51c84	-0.080620795
6	0xbd41bd40	-0.047299623
7	0xbd4bc82d	-0.04975145
8	0x38ec72b0	0.00011274719
9	0xbd68a6f8	-0.05679986
10	0xbcdd8431	-0.027040573
11	0x3b91a47d	0.0044446574
12	0xbd9ec78b	-0.077529036
13	0xbda0531e	-0.07828353
14	0xbc01c05a	-0.007919395
15	0x3def1f1a	0.11675854
16	0xbca5f885	-0.020260105
17	0x3dd53baa	0.10411771
18	0x3c912f4a	0.017722744
19	0x3ddeb5d5	0.108745255
20	0x3d689f8a	0.056792773
21	0x3d8e55ec	0.06949982
22	0x3dc17425	0.09445981
23	0x3d092a3c	0.033487543
24	0x3d825f75	0.06365863
25	0x3d7ae80a	0.061256446
26	0xbd9329bb	-0.07185694
27	0x3c977f7a	0.018493403
28	0x3e53e54d	0.2069294
29	0x3cd02594	0.025408544
30	0x3d2d85a1	0.042363767
31	0x3cacc567	0.021090223
32	0x3cdf74a3	0.027277296
33	0x3a548f91	0.0008108551
34	0x3d00f107	0.03147986
35	0xbd88d55d	-0.06681321
36	0xbd9e3975	-0.07725803
37	0xbd343b8f	-0.044002112
38	0x3d5b2878	0.05350539
39	0xbd8da80b	-0.06916817
40	0xbda922e9	-0.08258612
41	0x3dedffe2	0.116210714
42	0x3c534eb6	0.012897184
43	0x3d895b33	0.06706848
44	0x3e30685f	0.17227314
45	0xbe63f0bc	-0.22259802
46	0xbc956ef5	-0.018241385
47	0xbe9078cf	-0.2821717
48	0xbe86a88a	-0.2630046
49	0x3df65514	0.12027946
50	0xbda4a913	-0.08040061
51	0xbee11f49	-0.4396918
52	0x3db96c8f	0.09053909
53	0xbe7eb035	-0.24871905
54	0xbd5b4901	-0.05353642
55	0x3c62fade	0.013853757
56	0xbd8879ab	-0.06663831
57	0x3d96ac85	0.07357124
58	0x3cffe829	0.031238632
59	0x3d7c60e2	0.061615832
60	0xbde9df1f	-0.1141951
61	0x3d2bd99d	0.04195558
62	0xbcad1f8f	-0.021133212
63	0xbbe795ec	-0.0070674326
64	0x3d07289d	0.032997716
65	0xbc99bb1d	-0.01876598
66	0x3d311304	0.043231025
67	0xbdf702e0	-0.12061095
68	0xbd882502	-0.06647684
69	0x3e062c71	0.1310289
70	0x3d225667	0.03963318
71	0x3dfd7ed7	0.123777084
72	0x3de46251	0.11151565
73	0xbd94024d	-0.07227001
74	0xbe7f0257	-0.24903236
75	0xbd850f84	-0.064971
76	0xbda6cb72	-0.08144273
77	0xbdad2e7f	-0.08456134
78	0x3dd4e29e	0.10394786
79	0x3de01562	0.109415784
80	0x3cd329b5	0.025776723
81	0x3d8173c1	0.063209064
82	0xbdaf2c90	-0.085534215
83	0x3cd6a09f	0.026199637
84	0x3cc6c5af	0.024264185
85	0xbbc53e44	-0.0060193855
86	0xbddce1b0	-0.10785234
87	0xbe3a4ef1	-0.18194176
88	0xbcb772cf	-0.022393612
89	0x3d357c04	0.044307724
90	0xbe192fb4	-0.14959604
91	0x3c8158b0	0.01578936
92	0xb9613ca9	-0.0002148027
93	0xbcabd540	-0.020975709
94	0x3c971ed1	0.018447312
95	0xbd8aa078	-0.06768888
96	0xbe6e751e	-0.23286864
97	0xbe08ae59	-0.13347758
98	0xbdd3069a	-0.103039935
99	0xbd0e4798	-0.034736246
100	0x3c4637d2	0.01209827
101	0xbdbdad4d	-0.0926157
102	0xbc228dbd	-0.009921488
103	0xbd607a53	-0.054804157
104	0x3e8bcb0f	0.2730336
105	0x3ca2e000	0.019882202
106	0xb989fe77	-0.00026320267
107	0xbd77f5d8	-0.06053719
108	0x3d7211c9	0.059098992
109	0x3d4836d4	0.048880413
110	0xbe48408f	-0.19555877
111	0x3da0479d	0.07826159
112	0x3c8972b3	0.016778326
113	0xbe6bb3f8	-0.23017871
114	0xbcdd5c72	-0.02702162
115	0xbd6d177f	-0.057883736
116	0x3c367459	0.011136138
117	0xbd9b1d11	-0.07573903
118	0x3d888c7a	0.06667419
119	0xbb0e1c29	-0.0021684265
120	0xba8726b7	-0.001031122
121	0xbdff3418	-0.12461108
122	0xbe831d38	-0.2560823
123	0x3e04c41b	0.12965433
124	0x3cf55ff5	0.029952982
125	0xbd402280	-0.0469079
126	0xbe25d7bf	-0.16195582
127	0xbde4489f	-0.11146664
128	0xbd0a7024	-0.033798352
129	0xbdd9f8cb	-0.106431566
130	0x3c938f69	0.01801272
131	0xbbe5f1c2	-0.007017345
132	0xbe0a85ba	-0.13527575
133	0xbd3c938f	-0.04603916
134	0x3d08809c	0.033325776
135	0xbd3bb2f5	-0.045824964
136	0x3dffdca1	0.124932535
137	0x3e1add27	0.15123425
138	0xbd1d7a3b	-0.038446646
139	0x3ce6655a	0.0281245
140	0x3d2eab28	0.042643696
141	0xbd1dbcee	-0.038510256
142	0x3d7c38d4	0.061577633
143	0xbc87a747	-0.016559256
144	0xbe78c6dd	-0.2429461
145	0xbea4407c	-0.32080448
146	0xbe93fa0c	-0.28901708
147	0xbdfd324b	-0.12363108
148	0x3d69b62a	0.05705849
149	0xbe43dccd	-0.19127198
150	0x3d89d875	0.06730739
151	0x3c29d087	0.010364658
152	0xbdb7d86a	-0.089768246
153	0x3d8f95f8	0.07011026
154	0xbd313c46	-0.04327037
155	0x3c2541c2	0.010086479
156	0x3d6d5dec	0.0579509
157	0xbc15688d	-0.009119165
158	0x3c1d732d	0.00960998
159	0x3d84c0a2	0.06482054
160	0x3d926cad	0.071496345
161	0xbd707a40	-0.058710337
162	0x3beda6f7	0.00725257
163	0xbe26499a	-0.16239014
164	0xbcdf5761	-0.027263345
165	0x3de98092	0.11401476
166	0x3d671190	0.056413233
167	0xbb7cf375	-0.003859726
168	0x3d0fa09e	0.035065286
169	0x3c9d02a7	0.019166304
170	0x3d4d42c4	0.0501125
171	0xbdf64c70	-0.12026298
172	0x3a79d4fd	0.0009530334
173	0xbe0ee578	-0.13954723
174	0xbdad86f6	-0.084730074
175	0x3dadcdf2	0.084865466
176	0x3ddb0df8	0.10696024
177	0x3d98d105	0.07461742
178	0x3dd0e289	0.10199458
179	0x3dae3b00	0.08507347
180	0x3da25ea5	0.07928208
181	0x3c014dea	0.007892111
182	0xbd1f3db4	-0.038877204
183	0x3d3c2d63	0.04594172
184	0xbc8d29b2	-0.017231796
185	0xbdcf4e2a	-0.101223305
186	0xbcfe6628	-0.031054571
187	0x3da8b4da	0.0823762
188	0xbd1b883f	-0.03797173
189	0xbd8e3196	-0.069430515
190	0xbe13a85b	-0.14419691
191	0xbd5b96d4	-0.053610638
192	0x3d8b4910	0.06801045
193	0x3c2845fb	0.010270591
194	0x3c7fe4ed	0.015618545
195	0xbb22799a	-0.0024791718
196	0xbdddee7d	-0.10836504
197	0x3cee19b4	0.02906499
198	0x3e050b1d	0.1299252
199	0xbc889724	-0.016673632
200	0x3d433609	0.047658954
201	0x3d093fe2	0.03350819
202	0x3c42b499	0.011883878
203	0xbe4768d7	-0.19473587
204	0x3dc0bab5	0.094106115
205	0x3ce3ceb8	0.027808532
206	0xbe7f01ba	-0.24903002
207	0xbe37d678	-0.17952907
208	0xbc22a6d3	-0.009927469
209	0x3d854e8f	0.065091245
210	0xbd2b236a	-0.04178182
211	0x3e32b82d	0.1745307
212	0x3d76ebab	0.060283344
213	0xbd61e23f	-0.055147406
214	0xbcfa9e1c	-0.03059297
215	0x3c7c2e91	0.015391962
216	0x3d594b2f	0.053050216
217	0x3da5efb7	0.081023626
218	0x3e185479	0.14875974
219	0xbca3c5ee	-0.019991841
220	0x3df67183	0.120333694
221	0x3d7ad42b	0.061237495
222	0xbca1a687	-0.019732727
223	0x3df38245	0.11890081
224	0x3e2bf3fd	0.16792293
225	0xbb3ce1f8	-0.0028821211
226	0x3e0987b1	0.13430668
227	0xbcaa0631	-0.020754905
228	0xbd562cd9	-0.052288864
229	0x3e0de1fb	0.13855736
230	0xbd291a1e	-0.041284673
231	0xbe629105	-0.22125633
232	0xbdc17efa	-0.09448047
233	0xbe014194	-0.12622672
234	0x3d30eec8	0.04319647
235	0x3d8c2ed1	0.06844867
236	0x3ac6a668	0.0015155794
237	0x3e12faf2	0.1435354
238	0x3e05b6bc	0.13057989
239	0xbd0adb56	-0.03390058
240	0x3e23fb78	0.16013896
241	0x3dce1a3b	0.10063597
242	0xbe447d5e	-0.19188449
243	0x3e1153f1	0.14192177
244	0xbe68c739	-0.22732247
245	0xbddbf028	-0.107391655
246	0x3e6a314d	0.2287037
247	0xbcace39f	-0.021104632
248	0x3cb159c1	0.021649243
249	0x3d8e9614	0.06962219
250	0xbcf467e8	-0.029834703
251	0xbda782b4	-0.081792265
252	0x3d9677e1	0.07347084
253	0x3d8a01e4	0.06738642
254	0x3d3782df	0.044802543
255	0xbd9883d0	-0.07447016

res_blocks.1.conv1.conv.bias f4 [42]
0	0x3cd43b94	0.025907315
1	0xbd4addaf	-0.04952782
2	0xbcc2dffb	-0.023788443
3	0xbd4ee502	-0.050511368
4	0x3c0545da	0.00813433
5	0xbd0a8e82	-0.033827312
6	0x3c827edf	0.015929637
7	0x3d0e6743	0.034766447
8	0x3a951e66	0.0011376857
9	0xbd38df34	-0.045134738
10	0xbd155a23	-0.036462914
11	0xbc4b0db3	-0.012393403
12	0xbd1d277b	-0.03836773
13	0xbc5638ee	-0.0130750965
14	0x3d3b3ea5	0.04571404
15	0xbd1cebcc	-0.03831081
16	0x3c8e4688	0.017367616
17	0x3d3d57cc	0.046226308
18	0xbc68ec79	-0.014216536
19	0xbcfdaa51	-0.030965002
20	0x3d3d077b	0.046149712
21	0xbd1b7df2	-0.037961908
22	0xbd161225	-0.036638398
23	0x3c48f725	0.012265955
24	0x3c6b5419	0.014363312
25	0xbcc24f92	-0.023719583
26	0xbba280c9	-0.0049592
27	0x3d5107ea	0.051032938
28	0x3bf6ef32	0.0075358385
29	0xbc77b4ba	-0.015118772
30	0xbcdacfb0	-0.026710361
31	0xbd17f4c6	-0.03709867
32	0xbbb9f063	-0.0056744083
33	0x3c1388fa	0.009004826
34	0x3bbcbce1	0.005759821
35	0xbd186f4f	-0.037215527
36	0xbd42528d	-0.047442008
37	0xbd1c5833	-0.03817005
38	0xbbe08e29	-0.0068528843
39	0x3d04eeb2	0.0324542
40	0xbd0f358e	-0.034963183
41	0x3c51b76f	0.012800082

res_blocks.1.conv1.norm_fn.weight f4 [42]
0	0x3f4cea43	0.80044955
1	0x3f36c860	0.713995
2	0x3f53d987	0.82753795
3	0x3f475583	0.77864856
4	0x3f2e739c	0.68145156
5	0x3f34b1b7	0.7058367
6	0x3f549abb	0.830486
7	0x3f303fe6	0.688475
8	0x3f5fa286	0.87357366
9	0x3f1d0e23	0.61349696
10	0x3f2e96e7	0.6819901
11	0x3f431f79	0.762199
12	0x3f63d28b	0.8899314
13	0x3f40c98a	0.75307524
14	0x3f4bbaf6	0.79582155
15	0x3f40ecbc	0.7536123
16	0x3f368cbd	0.713085
17	0x3f3d2f59	0.7390037
18	0x3f40b786	0.75280035
19	0x3f80aecf	1.0053347
20	0x3f7907b6	0.9727739
21	0x3f48bc5b	0.7841241
22	0x3f3da4e9	0.7407976
23	0x3f674275	0.9033578
24	0x3f4576bf	0.7713432
25	0x3f271bad	0.65276605
26	0x3f348467	0.7051453
27	0x3f45deb2	0.7729293
28	0x3f468cb3	0.7755844
29	0x3f6f149f	0.9339084
30	0x3f399409	0.7249151
31	0x3f49e485	0.7886432
32	0x3f259fc8	0.6469693
33	0x3f5b5a2a	0.85684454
34	0x3f644791	0.891717
35	0x3f501616	0.812837
36	0x3f4cb6b0	0.7996626
37	0x3f5a5d23	0.85298365
38	0x3f391a00	0.723053
39	0x3f446a3d	0.76724607
40	0x3f4b34a2	0.79377186
41	0x3f1b1294	0.6057522

res_blocks.1.conv1.norm_fn.bias f4 [42]
0	0xbe954f7f	-0.29162213
1	0xbeb0e490	-0.3454938
2	0xbe0b07e4	-0.13577229
3	0xbeae09ce	-0.33991855
4	0xbf1326dd	-0.57481176
5	0xbdbd6d3e	-0.09249352
6	0xbead94a0	-0.33902454
7	0xbedbe529	-0.42948273
8	0xbeba0d53	-0.3633829
9	0xbe9519de	-0.29121298
10	0xbe8842a0	-0.2661333
11	0xbec9de96	-0.39427632
12	0xbf0f20d7	-0.55909485
13	0xbf5c3d02	-0.8603059
14	0xbe865d77	-0.26243183
15	0xbe97dbcf	-0.29659888
16	0x3e039d5d	0.12852998
17	0x3d53868c	0.051641986
18	0x3e081e55	0.13292821
19	0xbf0c8214	-0.54885983
20	0x3dfa02e3	0.12207582
21	0xbe80af07	-0.25133535
22	0xbe93831a	-0.2881096
23	0xbe981126	-0.29700583
24	0xbf328fab	-0.6975047
25	0xbe22c3d5	-0.15895016
26	0xbe3a530b	-0.18195741
27	0xbe5cdd9b	-0.21568911
28	0xbe3407c5	-0.17581089
29	0xbee28cb0	-0.4424796
30	0xbeba86d3	-0.36430988
31	0xbe74043e	-0.23829743
32	0xbdcfb525	-0.101419725
33	0xbe4d4529	-0.20045914
34	0xbe1dbcf4	-0.15404111
35	0xbe712883	-0.2355061
36	0x3d8c26f8	0.0684337
37	0xbed9f868	-0.4257233
38	0xbe116ecb	-0.1420242
39	0xbdb123b3	-0.08649387
40	0xbeae6735	-0.34063116
41	0x3f00cf13	0.5031597

res_blocks.1.conv1.norm_fn.running_mean f4 [42]
0	0xbfaefb9b	-1.3670534
1	0xbf265514	-0.6497357
2	0x3fd62f7f	1.6733245
3	0xbfd60700	-1.6720886
4	0x3ded6b31	0.11592711
5	0xbe8e5dfa	-0.27806073
6	0xbf6bb66d	-0.92075235
7	0x3f0a6169	0.54054886
8	0xbf96f26f	-1.1792735
9	0x3f1008b1	0.5626326
10	0xbfde97dd	-1.7390095
11	0xc089abb5	-4.3022103
12	0xbf3bfc44	-0.734318
13	0x3faa8bba	1.3323891
14	0x3f042c5e	0.516302
15	0x3f67ef47	0.90599483
16	0xbeba2324	-0.36354935
17	0xbf713062	-0.9421445
18	0x4044d92d	3.0757554
19	0xc00f1602	-2.2357183
20	0x3f3602ec	0.7109821
21	0x3f0fdb95	0.5619443
22	0xbfe60a59	-1.7971908
23	0xc0358c7b	-2.8366992
24	0xbf79983c	-0.97497916
25	0x400c0f63	2.1884391
26	0xbe7171c4	-0.23578554
27	0x3e07635c	0.13221496
28	0x3ee116e1	0.43962768
29	0xc04663c7	-3.09984
30	0xbfe57a55	-1.7927958
31	0xc006f123	-2.1084678
32	0x401e87cc	2.4770384
33	0xbf509868	-0.81482553
34	0xbe640471	-0.2226732
35	0x3fbd6f2a	1.479955
36	0xbff09246	-1.8794639
37	0x3fd13b17	1.6346158
38	0x3f47c468	0.7803407
39	0x403a562b	2.9115093
40	0x4010a565	2.260095
41	0xbf32c5f0	-0.6983328

res_blocks.1.conv1.norm_fn.running_var f4 [42]
0	0x414c819d	12.781644
1	0x41d44e6d	26.538294
2	0x41fb3b82	31.404057
3	0x41870689	16.878191
4	0x418bec37	17.49034
5	0x41214274	10.078724
6	0x428cdf7b	70.436485
7	0x41ee3270	29.774628
8	0x42252644	41.28737
9	0x410555a0	8.333405
10	0x41c3ec6c	24.49044
11	0x41c8c7bf	25.097532
12	0x42095959	34.337254
13	0x422acb67	42.698635
14	0x41a5bdc6	20.717663
15	0x4193a710	18.456573
16	0x40972de2	4.724351
17	0x41d95b48	27.16957
18	0x41eeb8dd	29.840265
19	0x418b2625	17.393625
20	0x423ddd1f	47.46594
21	0x421095b2	36.146187
22	0x4188439f	17.033018
23	0x4242b080	48.672363
24	0x42181f76	38.030724
25	0x42940ade	74.021225
26	0x41b86671	23.05002
27	0x4193d04a	18.476704
28	0x41b66dde	22.803646
29	0x42089b87	34.151882
30	0x4164c33d	14.297666
31	0x42132cea	36.79386
32	0x41799143	15.597964
33	0x41a2572b	20.292562
34	0x42916f14	72.71695
35	0x41894c66	17.162304
36	0x4184b35a	16.587574
37	0x4122905d	10.160245
38	0x418e5f22	17.796452
39	0x41987b77	19.060286
40	0x42a3b9d4	81.862946
41	0x40dbe43a	6.8716097
