systems/MPPI6/Kr_model_50.pth (torch, 482875 bytes, 50 tensors)

conv1.weight f4 [16, 1, 3, 3]
00000000: d49e d8bd b728 813e e477 603d 493a 843e
00000010: 8c9e 9d3e fd6b babe 4ac1 a4be 05ac 3c3e
00000020: adbf 9c3e 5370 0a3f 408e 98be 3e3d 023e
00000030: e2d1 febe 1c3e 5f3e b7fb 073e 45d8 31bc
00000040: e8a5 9f3d 7389 84be 21df 95be 4925 24be
00000050: 677a 0c3e fce8 aabe 4363 b63c f872 4a3e
00000060: 17f4 3e3e 4433 843e 3a90 213d 07f6 adbe
00000070: a190 dc3e 0f68 d03e c827 e7be d4e1 913e
00000080: a89c e6bd bbf9 ea3e 0be5 90be f712 63be
00000090: babc 8fbe 0a27 a3bd 4fbc 3b3d 0b8d f43e
000000a0: a0bd 8d3d 044d 3dbd b525 b3be 2a60 103e
000000b0: 1b9f 013d 893e 6dbe b92f 753e 53b2 1e3e
000000c0: f299 9e3e 4852 7d3e 2d71 92bc dbce 3bbe
000000d0: 379c be3d 5b60 c3be 981e 2f3e 135c 3dbe
000000e0: 00e4 81bc 8b2f 48be c64c 87be 9008 d4bd
000000f0: 5074 06be 88dd 36be 4fc8 92be 8309 4c3d
00000100: 3319 dc3e 3e7a 893e 510d 07bf 2443 94be
00000110: 45b4 a93e 1009 063d 879c 69be ac3d 903b
00000120: c6c5 83be 6658 c3bd d65d 34bd 9e6d 87be
00000130: 960d c5bd abf7 263d e7e3 86be 362b 9dbe
00000140: a02b 56be aba9 6dbc 3891 36be abe9 24be
00000150: 6411 91be 6b8a e53d fbe1 dbbd 1b05 4dbe
00000160: e391 a0be b671 3cbe d6a2 8c3e c701 2b3e
00000170: 6309 e9bd 720f 9f3e 69d2 163e 37a0 e1be
00000180: f7a0 3c3e 9037 45be e2ff 9e3e 07ad 3fbe
00000190: 3c61 9e3a 00db 013d 040c 903e 565d 8c3e
000001a0: 2c43 cb3b 645a d93e c194 a7be 66ad cebe
000001b0: 7bff 913e ed7e 0ebf 96ba 853e 285c c43d
000001c0: 9488 c1be 5795 63be 0a37 5a3e 927b 5dbe
000001d0: 2f35 003d c767 b8bd 77b4 47be a958 83be
000001e0: ca3b c3bd b125 a33e a657 863e 70f9 b1be
000001f0: 2252 c33e e478 29bf df4e d03c 7036 c13e
00000200: e2aa f43e 7772 12bf 8d44 73be 5ab9 1abf
00000210: 4deb 02bf fea7 8c3e 9f27 0cbf d08b fc3d
00000220: 816b 163d 2d9a 8fbc 1c66 60be d2b6 9fbe
00000230: 8e93 7cba fb6d 90be 9cdb d03d c0d7 e9bd
-0.10577169 0.25226375 0.054801837 0.25825718 0.30785024 -0.36410514 -0.32178718 0.18424995
0.30614987 0.54077643 -0.29796028 0.12718675 -0.49769503 0.21801037 0.13279615 -0.010854785
0.07795316 -0.25886115 -0.29271796 -0.16029848 0.13718568 -0.33380878 0.022264129 0.1977042
0.186478 0.25820363 0.039444186 -0.33976766 0.43079093 0.4070439 -0.45147538 0.28492606
-0.112603486 0.45893654 -0.28299746 -0.22175203 -0.28073674 -0.079664305 0.045833882 0.47763857
0.06920934 -0.046216026 -0.34989706 0.14099184 0.031645875 -0.23168387 0.23943986 0.15497713
0.30976826 0.24738419 -0.017876232 -0.18340628 0.09307139 -0.3815945 0.17101514 -0.18492155
-0.01585579 -0.19549386 -0.2642576 -0.10353196 -0.13130307 -0.17857945 -0.28668448 0.04981376
0.42987975 0.26851076 -0.52754694 -0.28957474 0.33145347 0.032723486 -0.22813617 0.004401883
-0.25736827 -0.09538345 -0.0440348 -0.2645082 -0.09621732 0.04076354 -0.2634575 -0.3069703
-0.20915079 -0.014505784 -0.17828834 -0.16104762 -0.2833358 0.11208042 -0.10736462 -0.20021479
-0.31361303 -0.18402752 0.27467984 0.16699897 -0.113787435 0.3106647 0.14728703 -0.44067547
0.18420778 -0.19259477 0.31054598 -0.18718348 0.0012083421 0.031702995 0.28134167 0.2741496
0.006203076 0.42451775 -0.32730678 -0.40366668 0.2851523 -0.55662423 0.26118916 0.0958789
-0.37799513 -0.22224937 0.21310058 -0.2162917 0.03130072 -0.09004169 -0.19502436 -0.2565358
-0.09532888 0.31864694 0.26238745 -0.34760618 0.381486 -0.6620009 0.025428234 0.37736845
0.47786623 -0.5720591 -0.23756619 -0.60439074 -0.5114029 0.27471918 -0.54747957 0.123313546
0.036723617 -0.017529571 -0.21913952 -0.31194168 -0.00096350245 -0.28208908 0.10198137 -0.11418104

conv1.bias f4 [16]
00000000: 3feb 7bbe 7f26 cbbd f2dd a6be 7014 4fbe
00000010: b053 81bd 6f42 74be fe12 99be f63e 76be
00000020: 43ee 9fbe c2be a6be 72e3 4fbe 4267 aebe
00000030: 2beb 133e 0f52 413d 2221 67bd 7cd4 23be
-0.24601458 -0.09919452 -0.32591206 -0.2022264 -0.0631479 -0.23853467 -0.29897302 -0.24047455
-0.31236467 -0.32567412 -0.20301607 -0.34063154 0.14445178 0.047197398 -0.056428082 -0.15999025

conv2.weight f4 [32, 16, 3, 3]
00000000: 5965 04bd 6aca a73c e454 1f3d 79f2 30bd
00000010: 1564 11bd 19ad 2c3b 2fa5 0abe 897c 9a3e
00000020: f2a6 d63e a0af b23e 0084 3abf 030e 3e3f
00000030: 3fcd b4bd 3a32 113e 0953 ffbe 0407 353e
00000040: de34 3fbc 0610 14be 81b2 ad3d 08e5 d63d
00000050: 2320 32bf 7c17 a83e 13a1 00bd 8e30 15bd
00000060: 838b fcbc 0760 47be e1fa ee3d 6603 903d
00000070: 8720 723e 7ab5 af3e 0d0f 233e ef4c 89be
00000080: 4cd3 253e d9ac 8dbd 9938 83bd 9fb2 f2bc
00000090: 0a22 f2bc 09fa 253d 9d01 89be 39d1 7bbe
000000a0: 52a8 ce3e 017f 83be 7f40 933e da14 b7be
000000b0: 8acb ec3d 30d2 613e 9838 62be 334d 6dbe
000000c0: d3ae 56be 9cd3 d83d b1fd a53c 2790 00bd
000000d0: d2d4 11be d352 a53d 2bb7 2b3c f09d b23c
000000e0: 9819 833d 574d 99bd 0b50 9dbc 40d7 80bb
000000f0: f0fe ca3c ae49 203d 0b27 133c 7d6e 50be
00000100: 8294 24be 9af5 ccbe f7a0 103e 4fab 1b3e
00000110: 6585 15bf aaa8 ed3d 6758 6a3e b492 4dbe
00000120: 5b3c fa3c bb37 90bc 223c 8ebd f625 35bc
00000130: 8385 5a3d 00a4 9dba 0359 953d 16a8 fbbb
00000140: be28 683d 7b4f 2d3d a0ee 2dbc dbb3 643d
00000150: 5018 7e3d a807 3ebd 00b4 243a ce14 403d
00000160: c0be c6bb 0b49 6dbd 67b5 1a3c fc0d 2b3e
00000170: a898 963d f833 883d 4682 cebd cb83 b5be
00000180: 9316 cbbe 8c85 84bb 7b08 c73e c74f 13bc
00000190: 923c 503e 335c 413e e242 0bbc ec51 893c
000001a0: 4e7e e23c 5cc2 f23d d4b5 30be 631f 78be
000001b0: 47a0 f73e 9680 9fbe 3b19 953e 0119 d43d
000001c0: 6b71 923e 0588 5bbe 220f d73c 5688 133e
000001d0: 2829 9fbd bd6f 77bd 551a 9abe 6a94 983e
000001e0: 485d eb3b d9ca 75be 47e1 543e 9d06 2abc
000001f0: e9a1 a63c 004b a23d 65c1 c0be e976 3dbe
00000200: 5ca0 563e 1f70 bdbe d1ae 57bd a4bc 0ebf
00000210: e152 b4be 6ae9 33be d3ed 2fbf ae65 afba
00000220: 7d1e 703c 3e92 ba3c 51fe 7d3d 9d6d 6dbc
00000230: 413c 2dbd ad05 babd 61e3 bcbb f994 8bbd
00000240: 96f0 e03b 7013 9c3e e716 58be 2009 e33c
00000250: 9250 e33d cc31 853d b458 86be e510 8dbc
00000260: 074b d13d c2c6 833d 0cc3 b13e 58d5 2abd
00000270: 0e00 903e e4e6 f43d 71d5 363e 318d 25bf
00000280: 7a10 813e e2e4 9a3e e565 9d3e 5b6a 2abe
00000290: e33b b2be 68d1 3ebe 3c1b 823d 9967 7f3b
000002a0: 6213 17be 2cc8 f2bc fb1c 72be 4365 9bbd
000002b0: 7c19 09be c9fc f63d 46c8 debd 766d 293e
000002c0: 1b7b c6bb 5c27 f03d 13b0 94be c2be c2bd
000002d0: 9468 0dbb fb7e 9c3d a8a8 513d 7828 a1bd
000002e0: 8016 2bbe 0e40 59bd 1f6d bbbd 63ec d0bd
000002f0: 8b12 0b3a e433 9f3d a5bb 1dbe ce6f 5abd
00000300: ae54 e53c 136a c9bd 9958 e0bd dd8a 9bbe
00000310: 56ad 8ebe d18f 19be 3618 97bd a689 51bd
00000320: 8bcf a03d 80df f7bb e687 eb3c 46d3 93bc
00000330: 7654 20bd 4b0a 45bc cef1 3dbd 11bb 7abd
00000340: 2371 3bbe ae0b 86be e7cf 4f3e 1586 64bd
00000350: cf6e a83e 939c c3bc baa3 96be 4058 2f3d
00000360: b84b 1e3d abc6 fcb9 764f a9bd d652 9cbb
00000370: 20e3 c53c 9846 0abd a631 8f3c fbfd 89bd
00000380: a37e 1d3d ee7f 6c3d b059 663d 3ca7 a8bd
00000390: 46e4 b8bc 7755 893d b88a 4ebd 0099 3e3c
000003a0: 2be8 873b d69a d3bc 5351 943e 959c 35be
000003b0: 4003 50bd c577 fdbc 5027 413e 0039 883d
000003c0: 2d10 f4bd 81ba ab3d 80f8 94bd 6feb e43e
000003d0: d8fc 003d 7ccb 31be edce 1cbd dbcc 50be
000003e0: a39f adbe 97e6 a5bc 74d1 233e bcaf e13d
000003f0: c7cf c23e bd08 553e ca32 983e 761b 303e
-0.032323215 0.02048226 0.038899317 -0.04319999 -0.035495836 0.0026348291 -0.13539575 0.30173138
0.41924244 0.34899616 -0.72857666 0.7424013 -0.0882821 0.14179316 -0.49868038 0.17678457
-0.011670319 -0.14459237 0.084813125 0.10492903 -0.69580287 0.32830417 -0.031403612 -0.03642326
-0.030828243 -0.19470225 0.11668945 0.07031898 0.2364522 0.34318143 0.1592371 -0.26816508
0.16193885 -0.06917734 -0.064072795 -0.029626189 -0.029557247 0.040521655 -0.26759043 -0.24591531
0.40362793 -0.25682834 0.28760144 -0.35758096 0.115622595 0.22052836 -0.22091901 -0.2317398
-0.20965128 0.10587236 0.020262571 -0.031387474 -0.14241341 0.08072438 0.010480682 0.021803826
0.06401366 -0.074854545 -0.019203207 -0.00393191 0.024779767 0.039132766 0.008981477 -0.20354648
-0.16072276 -0.4003113 0.14123903 0.15202068 -0.5840667 0.11604436 0.22885285 -0.20075494
0.030546358 -0.0176047 -0.06945063 -0.011056414 0.053349983 -0.0012027025 0.07292368 -0.0076799495
0.05667948 0.042312127 -0.010615975 0.055835586 0.062034905 -0.04639402 0.00062829256 0.04689484
-0.0060652196 -0.057930987 0.009442664 0.16704553 0.073533356 0.06650537 -0.100834414 -0.35452113
-0.3966566 -0.0040442403 0.38873658 -0.008991188 0.20335606 0.18882827 -0.008499833 0.016762696
0.027648117 0.11853477 -0.17256862 -0.24230723 0.4836447 -0.3115279 0.29120812 0.103563316
0.28602156 -0.21438606 0.026252333 0.14407477 -0.07771522 -0.060409296 -0.30098215 0.2980073
0.007182751 -0.24003161 0.20789061 -0.010377553 0.020340877 0.07924461 -0.37647548 -0.18502392
0.2095961 -0.36999604 -0.052656952 -0.5575659 -0.35219482 -0.17569509 -0.68722266 -0.0013381743
0.0146557065 0.022774812 0.062010113 -0.014491466 -0.04229379 -0.09083114 -0.0057644104 -0.06815524
0.0068646176 0.3048358 -0.21102487 0.027714312 0.11099352 0.065036386 -0.2623955 -0.01721997
0.102193885 0.064343944 0.3471912 -0.041707367 0.28125042 0.119581014 0.17854859 -0.64668566
0.25207883 0.3025275 0.30741802 -0.16642134 -0.34811315 -0.1863457 0.06352851 0.003897166
-0.14753488 -0.029636465 -0.23643868 -0.075876735 -0.13388628 0.12059934 -0.10878043 0.16545662
-0.006057156 0.11726257 -0.29040584 -0.095090404 -0.0021577226 0.07641407 0.051186234 -0.07869047
-0.16707802 -0.053039603 -0.091516726 -0.10201337 0.00053051923 0.07773569 -0.15403612 -0.05332928
0.02799448 -0.09834685 -0.10954399 -0.30379382 -0.2786662 -0.14996268 -0.07377665 -0.051156662
0.07852086 -0.007564485 0.028751325 -0.018045079 -0.03914305 -0.01202638 -0.04637318 -0.061213557
-0.18304877 -0.26180786 0.20294152 -0.055791933 0.3289704 -0.023878371 -0.29421788 0.04280877
0.03864643 -0.00048213205 -0.08267109 -0.004770617 0.024156153 -0.03375873 0.017479729 -0.06737896
0.03845085 0.05773919 0.056237876 -0.082350224 -0.022569787 0.06705754 -0.05042526 0.011633158
0.0041475496 -0.025830667 0.28968295 -0.17735513 -0.05078435 -0.0309409 0.18862653 0.06651497
-0.11917148 0.08385182 -0.0727396 0.44710872 0.03149113 -0.1736278 -0.038283277 -0.20390646
-0.33910856 -0.020251555 0.15997869 0.11019847 0.38049147 0.20804115 0.2972625 0.17197976

conv2.bias f4 [32]
00000000: fb1b b2bc 0908 85bd 4ac5 d5bd 3bbc 04be
00000010: 226f 6abd 9c9e 063c 03c7 11be ff92 b5bd
00000020: d467 a1bd dab1 bcbd c4be 5dbd 69dc dfbb
00000030: 8247 c1bd b791 0fbe 5ef6 973d 7545 45bd
00000040: 2c40 2ebd 5885 83bd 7121 86bd 1005 c5bd
00000050: 3542 6fbd 4299 d03d 4a3d c9bd 448e 07be
00000060: b956 92bd 778a 843d 0f3b d7bd d0df 4ebe
00000070: 4837 8dbd 6ec2 3dbd 25f3 8cbd b632 fdbd
-0.021741858 -0.06495673 -0.104380205 -0.12962429 -0.05723489 0.008216526 -0.14236073 -0.08865928
-0.07881132 -0.0921361 -0.054137006 -0.006831695 -0.09437467 -0.1402043 0.07420038 -0.048161943
-0.042541668 -0.06421918 -0.06549347 -0.09620106 -0.05841275 0.101854816 -0.09826143 -0.13237864
-0.07145447 0.064717226 -0.105093114 -0.20202565 -0.0689531 -0.046328 -0.06882314 -0.12363188

fc_image.0.weight f4 [100, 512]
00000000: d626 273d 90b1 82bd 3ef6 42bd 471d 50bd
00000010: 75e0 53bd 6ad4 50bb 5e5b eabb ceab 79bd
00000020: 9559 a8bc 834f 013d fafe c2bc 902b ca3c
00000030: e5f2 b2bc ecf4 f63c 3657 cdbc 0eda 93bb
00000040: 2c73 aa3c e39b 3dbd f2d4 d7bb 0605 85bc
00000050: 76bf 173d 5d4c 8abc 5c5e 38bd eabf 1dbd
00000060: 838b 25bd a07e 4ebb a186 65bc c65b 3abd
00000070: 43ad 54bd d6c7 0abd 92d1 0f3c c201 8abd
00000080: 1498 0dbd 204d fb3c 3ea4 4b3c 2d38 a5bc
00000090: 6a60 06bc a964 29bd 69ea de3c 7ba8 65bc
000000a0: 27b0 253b 147a 123d 4e40 243d b04a bb3c
000000b0: 21f2 9c3c 3bc9 fa3c ac03 ef3c efee abbc
000000c0: 4aca 10bd 5582 ef3c 8c7f bd3c d171 79bd
000000d0: 7269 00bd 49c0 97bc 8532 84bd 0850 69bd
000000e0: 752e 85bd 1add 2ebd 0059 a0bc da9b 85bd
000000f0: b901 24bd 96fd b8bc 9955 0abd 87aa b73a
00000100: 41de 01bd 475d 89bd 3feb b0bc c107 7dbd
00000110: d327 5fbd 4897 21bd a29f f0bc 72bf ba3a
00000120: 359d a93c fb53 bdbc 4402 0abd bdd5 b63c
00000130: 1d3b e7bc c77c 92bc f05a afbb d8a4 91bc
00000140: 3aa1 2bbb f33a 7bbd a69c 63bb 2b89 42bd
00000150: 1a17 873c dab1 343d 69fd 963c 6d02 62bd
00000160: ebdf 833c 7071 d4bc 6c9b 8fbc b19e 1d3b
00000170: bb09 81bb 0814 a6bc 5a35 2d3d 683f a3bb
00000180: 0045 5dbc 38e8 8fbb 4c14 08bd 95f3 bdbc
00000190: 556a 60bd d6f2 eebb e283 343a 2b6d 983c
000001a0: abeb 8abb f5fa 8bbd 2d40 c8bc b381 3f3c
000001b0: 3015 5b3c 51c2 c93b a5da 603c b958 5cbd
000001c0: b721 5ebd c1ff e7bc 1d08 ecbc ce24 04bc
000001d0: 8bc6 77bd f688 1c3c b7fe febc fd7a 2ebc
000001e0: 2f2d 01bd b89a 473a ad36 05bd 1391 f3bb
000001f0: 24ac 9bbb 20f3 e5bc 8abe 023d 3cfa 10bd
00000200: c6e1 57bd 789c c8bb 546b 5cbd bfce 4739
00000210: 672d 29bd 2476 7dbd 8ebb 4ebd a012 67bc
00000220: 56ad 97ba b5a9 083b db7f beba ea7b 8dbc
00000230: 0f31 b43c 2f0b c93c 9ff3 2cbd 5c2e f4b9
00000240: 9bad a13c 26d3 46bd feb8 8ebc b5d2 933c
00000250: cdda fdb9 71fb 2b3b 04b3 1ebd c376 92bc
00000260: d40f 113d 6b5d d9bb 122e 53bd 5d5a 96bb
00000270: d05e 7fbb 3d6b 63bd 101f c03c ce2f ee3b
00000280: dc28 c03c cd7c 22bd 85b5 783c b15b efbb
00000290: a221 efba 1676 b2bb 21fa 87bd 2ef9 56bd
000002a0: 77a4 773c 3ba6 38bd 9f01 71bd 2bad 87bd
000002b0: ab93 903b 2cc3 b43c 953a 9f3b 46b9 c83b
000002c0: e15e a83c d602 acbc 07dd 5d3b 8716 873c
000002d0: 08e4 163d 4278 b0bb d97a 0d3d 22a2 98bc
000002e0: 1838 f2bc 387b 273c b7b0 063d 407f 363c
000002f0: 760a afbb d473 14bd 9a67 1abd 8fc5 1e3b
00000300: 5531 30bd f351 f3bb 0b74 87bd 2f9b 55bd
00000310: 5ca3 b73a da5d 82bd 146b b3bc dcf4 55bd
00000320: b299 09bd 4ccb 0bbc c173 9f39 af68 a7ba
00000330: 29ce 3a3c 91e8 543c 59b4 293c ba9d 68bc
00000340: 5eaf ab3c b80b 05bc 4adb 203d b263 86bc
00000350: 07ac f6bc d4bb 863c aea2 1f3d c845 833a
00000360: a22b bdbc 17d4 d23b cbec 5bbc 0ad8 16bd
00000370: 0589 fdbb 2ac7 05bd 139a 2bbd ddbc 123d
00000380: d1ef 9cbc edd3 2abd 0531 183d 94a6 26ba
00000390: 0f92 813c 1572 1fbd e712 f43c f664 24bc
000003a0: 81a5 ad3b 9418 8eba 3b3f a6bc c784 223d
000003b0: 7af6 0bbd 6b90 2abc d9b0 d8bc e1de 443c
000003c0: 0e9b b7bc 634c 18bd 1b55 abbb 766d bcb9
000003d0: c7da 143c 713c 09bd 24ff 1ebd a834 8fbc
000003e0: f189 66bd 722d c0bc 7f61 263c 0bb9 41bd
000003f0: 4347 053d 407f 753c 9788 a73b 4d61 263d
0.04080852 -0.063815236 -0.047598116 -0.05080917 -0.05172773 -0.003186489 -0.007152005 -0.06095486
-0.020550529 0.03156997 -0.023803223 0.024678975 -0.021844337 0.030146085 -0.025066 -0.004512078
0.020806871 -0.046291243 -0.0065866644 -0.016237747 0.037047826 -0.016882116 -0.045011863 -0.0385131
-0.040416252 -0.003150858 -0.014009149 -0.04549768 -0.051923048 -0.033881985 0.008777993 -0.067386165
-0.03456886 0.030676425 0.012429295 -0.020168388 -0.008201698 -0.041355763 0.027211385 -0.01401722
0.0025281997 0.035760954 0.04010039 0.022862762 0.019158425 0.030613532 0.029176556 -0.020987956
-0.035349168 0.029236952 0.023132108 -0.06089956 -0.03135056 -0.018524306 -0.06454948 -0.05696109
-0.065030016 -0.042691328 -0.019573689 -0.06523867 -0.040040705 -0.022581857 -0.03377304 0.0014012613
-0.0317061 -0.06707244 -0.02159655 -0.061774973 -0.05448134 -0.039450914 -0.029372994 0.0014247729
0.020704845 -0.023111334 -0.033693567 0.022318715 -0.02822643 -0.017881764 -0.0053514168 -0.017778799
-0.0026188628 -0.061335515 -0.003473082 -0.047494095 0.016490508 0.044114925 0.018431382 -0.055178095
0.016097983 -0.025932997 -0.017530166 0.0024050886 -0.0039379275 -0.020273224 0.04228721 -0.004981924
-0.01350522 -0.0043916963 -0.03322248 -0.023187438 -0.054788906 -0.007292132 0.0006886107 0.018606743
-0.0042395196 -0.06834976 -0.024444664 0.011688638 0.013371751 0.0061571975 0.013724004 -0.05379555
-0.05423137 -0.028320195 -0.028812462 -0.008065416 -0.06049208 0.009554138 -0.031127317 -0.01064944
-0.03153723 0.00076143024 -0.032522846 -0.0074330657 -0.0047507454 -0.028070033 0.031919993 -0.035394892
-0.05270555 -0.006122168 -0.053813294 0.00019055138 -0.041303065 -0.061880246 -0.050471835 -0.014103562
-0.0011572044 0.0020853106 -0.0014533954 -0.017271 0.02199605 0.024541466 -0.042224523 -0.00046573847
0.019736102 -0.04854121 -0.017422196 0.018044809 -0.0004841894 0.00262424 -0.03874494 -0.017878896
0.035415486 -0.0066334507 -0.051557608 -0.004588409 -0.0038966425 -0.055522192 0.023452312 0.0072688824
0.023456983 -0.0396698 0.015179996 -0.0073046316 -0.0018244276 -0.005446206 -0.06639505 -0.05248373
0.015114895 -0.045080405 -0.058839437 -0.06624826 0.0044121346 0.022065721 0.0048592784 0.006125602
0.020553054 -0.020997446 0.0033853666 0.016490234 0.03683856 -0.0053854296 0.034540985 -0.018631998
-0.029567763 0.010222249 0.032883372 0.011138737 -0.005341823 -0.036243275 -0.03769646 0.002422664
-0.043015797 -0.0074255406 -0.0661393 -0.052149948 0.0014010477 -0.06365557 -0.021901645 -0.05223547
-0.03359384 -0.0085323565 0.00030413087 -0.0012772287 0.0114016915 0.012994901 0.01035794 -0.014197761
0.020957645 -0.00812047 0.03927163 -0.01640496 -0.030111326 0.016446985 0.038973503 0.0010015303
-0.023092095 0.0064339745 -0.013423155 -0.036827125 -0.0077372813 -0.03266064 -0.041894984 0.035824645
-0.019157322 -0.041706014 0.037156124 -0.00063572195 0.015816716 -0.038927156 0.02979417 -0.010033837
0.0052992706 -0.0010841065 -0.020293823 0.039677408 -0.034170605 -0.0104104085 -0.026451515 0.012016029
-0.022412803 -0.037182223 -0.005228651 -0.0003593971 0.009085364 -0.033504907 -0.03881754 -0.017481163
-0.056283895 -0.02345917 0.010155081 -0.04729561 0.032538664 0.014983952 0.0051127183 0.040620137

fc_image.0.bias f4 [100]
00000000: 63fc 7ebd c8e7 08bd 964d 23be 5ea0 01bd
00000010: 854b bbbd c2ce fd3c 5c6e 3bbd 0a59 c73b
00000020: 17b6 bebc 703d ee3d 2ffa f13b 5392 22bd
00000030: 4865 4cbd 837b 97bc 05ed 17bd 4927 103d
00000040: b1d4 74bc 4444 bbbd 46ee a9bc 8404 9c3d
00000050: c67e 0b3c deda 8bbd 4195 44bd f992 15bd
00000060: b330 60bd 595d bb3b 1fa5 c7bd 3635 323d
00000070: 9862 98bb 7e95 273d 378f 9cbd b1eb 4ebd
00000080: d2dc 7f3d a895 87bd 0bd4 0cbd 0278 ecbc
00000090: b0d0 c3bd 2876 1abd 46fa 94bd be73 ac3d
000000a0: 1e3b 05bd 22ab 04bd b848 2abd e388 20bd
000000b0: 282a 773d 5d0b bfbc 3597 18bd b63e 0cbd
000000c0: 14e5 2dbd 2c58 29bd c505 3d3d bf29 9e3d
000000d0: 63b2 8abd 7bda 99bc b189 55bd 54b6 64bc
000000e0: 8136 45bd 970f e13d 859b b53d 45d2 3cbd
000000f0: 3683 e6bd 18ee 9fbd 8967 2fbd 83c3 00bd
00000100: 1b16 73bd c519 7ebd d05f 69bd b8d8 193d
00000110: 2820 fc3d 07f6 a6bc 4bc1 05bc 094d 48bc
00000120: 4446 6cbd 5705 18bd 4a66 62bd ec80 22bd
00000130: b5a2 22bd e083 92bd 3d0d f93d 7c07 a8bd
00000140: 774a 1cbd 9987 3fbd 5038 43bd d8be 88bd
00000150: 5f92 50bd 1683 30bd 206e 88bd 2228 7cbd
00000160: 13c3 77bd ea89 4d3d 6725 18bd 71c5 a73d
00000170: e64b 7cbc e1dc 0e3e e7a4 f6bc 912c 88bd
00000180: 2012 55bd 353e 47bd eae9 7c3d ab9a f23c
-0.062252413 -0.03342417 -0.15947565 -0.03164708 -0.091452636 0.030982379 -0.045759544 0.0060836123
-0.023280187 0.11632812 0.0073845605 -0.039690327 -0.049901277 -0.018491512 -0.037091274 0.035193715
-0.014943288 -0.0914388 -0.0207435 0.07618049 0.008514112 -0.06828855 -0.047993902 -0.036517117
-0.054733943 0.005717915 -0.09748291 0.043507777 -0.004650425 0.04091405 -0.076445036 -0.05051774
0.06246645 -0.066203415 -0.034381907 -0.028865818 -0.09561288 -0.03771034 -0.07274298 0.084205136
-0.03252708 -0.032389767 -0.041573256 -0.039193045 0.060342938 -0.023320848 -0.037253577 -0.034239493
-0.042454794 -0.041343853 0.04614808 0.07722806 -0.06772306 -0.018780937 -0.052133266 -0.013959486
-0.048147682 0.10989302 0.088675536 -0.046098966 -0.11255495 -0.07809085 -0.04282335 -0.031436455
-0.059347253 -0.062036294 -0.05697614 0.037560195 0.12310821 -0.020380987 -0.00816376 -0.012225398
-0.057684198 -0.037114467 -0.05527333 -0.03967373 -0.03970595 -0.071540594 0.12160728 -0.082045525
-0.038156953 -0.046760175 -0.047661126 -0.066770256 -0.05092084 -0.043093763 -0.0666163 -0.06156171
-0.06048877 0.050180353 -0.037145045 0.08191956 -0.015398955 0.13951446 -0.030107928 -0.06649125
-0.05201924 -0.04864331 0.061746515 0.029614767

fc_image.2.weight f4 [50, 100]
00000000: 1d26 523d fdae e33c 193d aa3c 7508 9b3d
00000010: 395e dabc 89b7 db3d d3b1 0e3d 2454 0a3e
00000020: 778a 283c 0c57 c9bd 8832 b6bb 35c8 963d
00000030: 1283 7fbd a33b 9cbd 1e0a 283d aa43 4e3d
00000040: e1a2 84bd e05b 653c 78cb 313e 5052 8fbe
00000050: 23d7 13bd bd30 61bd fcef 8fbd 48f8 1f3d
00000060: e92e 973d 83c5 0e3e bd45 1bbd a300 733c
00000070: c9c5 afba 22a8 ee3d 39e0 c23c d427 c03d
00000080: c6f3 ae3d 8575 e03c daef 023d 7107 36bd
00000090: b8d2 0abe 8e80 afbd 04ca 0cbd 0296 1e3e
000000a0: 53a1 8b3d 29bc a5bc ac60 b83c 9c55 ab3c
000000b0: eda6 10bc fe08 bfbd 442a 963d 8e17 2f3c
000000c0: ee23 8abb e9ec 273d 7e03 763e 4e9f df3c
000000d0: e3c4 9cbd a0c1 8b3c aea3 813d 2708 2c3d
000000e0: 2a43 e13d 05fb ed3d c537 a83d e533 353e
000000f0: 6a9c 903d d0d6 0e3e e94a 113d 632b a2bd
00000100: cc96 09bd 8f79 ab3d 7541 7cbd d681 323e
00000110: a898 133d e2f8 403c 7409 8ebc 4c0b 3cbd
00000120: c31e 26bd ada6 6f3d 89de bb3d bf1a 973d
00000130: 463a 90bc dc06 46ba 8000 27be 447b 8e3d
00000140: 51a8 9f3d b2ac 9ebc c1bb 1dbd fcac 8dbd
00000150: a070 2a3d d11f d93c 3a59 083c cbbf 3e3d
00000160: 21d1 d53d fa51 dbbd 6779 ab3d 6c34 263d
00000170: f4ab e03d 60fe 273d 5cea ac3d 628e 00bd
00000180: 9060 b53d 88a6 6f3d bb7e 6dbd f3b4 0d3e
00000190: 516b d43b fd87 cb3e 804d 083e bf50 b9bc
000001a0: a854 893d 0d09 5abe 5d0c 0ebd def7 a5be
000001b0: 5a5d b33c b2c3 573e bb4e 363e 3adc b33c
000001c0: c575 94bc 6db1 4f3a 1920 aabe d203 83be
000001d0: 646e ed3e a6d4 1b3e e461 893d 5252 01be
000001e0: 3e4a cb3d 2a66 f1bc c383 d73c 155a 71bc
000001f0: 6234 7bbd 1af9 84be c7ae ac3b 3025 4fbe
00000200: b84d 95bd 4ed8 3ebe 7773 803c e843 80bc
00000210: 88aa dcbe 414f 0f3e 3ca3 8fbd f697 0abb
00000220: 6690 013d f150 973d 1e4c d3bb 0d73 ad3e
00000230: 8486 0c3c d5a3 46bd bb02 63bd 96d3 453d
00000240: 2bc7 a13e 6b51 70bd a3d0 e53d 3220 acbb
00000250: badc 413d f5cf 59bd 0f8a 843c 8a01 633e
00000260: 53c2 9c3d 58cb bf3d e6ab 433d df96 dfbc
00000270: a26b e53d c91b 813e 080d a83d 30fa 9b3e
00000280: 36e1 0d3e 837c c2bd f2de 7d3d 816c 3c3c
00000290: 81cf 9abd b37e 87bc a464 c93a f0b2 46be
000002a0: 6af5 f83c 8b84 ca3d e041 6abe daef d4ba
000002b0: 2869 4dbc 8931 8fbc d5de 87bd e616 99bd
000002c0: 33ab 763b d79d 993d 3a19 a23c ed9e 523e
000002d0: 8bce b7bd 5acc 09bd 2cba 983c 8518 203c
000002e0: d729 863d 4a5c 8e3d c949 813c a788 c3bc
000002f0: 1208 d33d a79e 71bd 6f6e b63d e109 6e3e
00000300: 5b94 96bd ff25 d93d 6a57 67bd ee02 adbd
00000310: 3490 303b 973b de3c 2c0e 8d3c af67 483e
00000320: 8263 bc3d 789b a1be db59 f8bd 7b37 82bd
00000330: e28c 913d 2dc8 183d 969f 7e3d 56f8 53be
00000340: b00a aabd df82 983c 22f9 29be 183a 08bc
00000350: 12bb b9bc 38e7 bf3d e3a6 1abe 1aa7 34bd
00000360: f3c3 2ebe f0ce 4c3d d6b1 0abc b423 90be
00000370: a70b 353e 8636 f1bc 0a10 85bd ed35 fe3d
00000380: 1036 91bd f837 27be 101f 94bd 8fab 8f3e
00000390: 072e 96bd bcdf 2e3d e099 26bd 7426 97bb
000003a0: de8e 1e3d a187 e8bc b47b 513d b24f 313d
000003b0: 29cf 153d 2f29 34bd d1c2 3dbd b6ab 88bd
000003c0: 0264 45bd 266d 7cbd 869e b9bd b4e1 193d
000003d0: 486b e6bd 596b 7cbd 698c 2bbd b60f 023d
000003e0: efc0 683d d482 97bd cbdb 84bc c626 afbb
000003f0: e11b 793c aabd 15bd bd33 2cbd 67f3 3f3d
0.05130588 0.027793402 0.020781087 0.075699724 -0.026656257 0.10728366 0.034837555 0.1350866
0.010286919 -0.09831056 -0.005560223 0.07362405 -0.062380858 -0.07628562 0.041025274 0.0503575
-0.06476379 0.0139989555 0.17362773 -0.27992487 -0.036093842 -0.05497812 -0.07028195 0.03905514
0.07381994 0.13942532 -0.037908304 0.014831695 -0.0013410385 0.116531625 0.023788558 0.093825966
0.0854259 0.027399788 0.03196702 -0.04444069 -0.13556945 -0.08569442 -0.034372345 0.15486911
0.068178795 -0.020231323 0.022507034 0.020914845 -0.008828861 -0.09327887 0.0733228 0.010686768
-0.004215709 0.04099742 0.2402477 0.027297642 -0.07654741 0.017060101 0.063300475 0.041999962
0.10999139 0.11620144 0.08213762 0.17695577 0.070610836 0.13949132 0.03547183 -0.079184316
-0.033591077 0.08372795 -0.061585862 0.17432341 0.036034256 0.011778088 -0.017338492 -0.04590921
-0.04055668 0.058508564 0.091733046 0.07378148 -0.017605912 -0.0007554123 -0.16308784 0.06957105
0.07795776 -0.019369457 -0.038509134 -0.0691776 0.041611314 0.026504429 0.0083220545 0.046569627
0.10440279 -0.10708995 0.08372765 0.040577337 0.109702975 0.041014075 0.08443138 -0.031385787
0.088563085 0.058508426 -0.057982188 0.13838558 0.0064825197 0.39752188 0.13310814 -0.02262151
0.067056 -0.21292515 -0.03467976 -0.3241567 0.0218951 0.21070746 0.17803471 0.021955598
-0.018122563 0.0007922862 -0.33227614 -0.25588852 0.46373284 0.15217838 0.06708124 -0.12629059
0.0992627 -0.029467661 0.026307946 -0.01473095 -0.061329253 -0.259713 0.0052698585 -0.2022903
-0.07290214 -0.18637201 0.015680058 -0.01565738 -0.43098855 0.13995077 -0.07013556 -0.0021147705
0.03163185 0.07388485 -0.006448283 0.3387684 0.008576993 -0.048496086 -0.055422526 0.048297487
0.31597266 -0.058671396 0.11221435 -0.0052528614 0.047329642 -0.05317684 0.016179113 0.22168556
0.07654252 0.093649566 0.047771357 -0.02729362 0.1120217 0.2521651 0.082056105 0.30464315
0.13855442 -0.09496405 0.061980195 0.011500479 -0.075591095 -0.016539907 0.0015365076 -0.19404197
0.03039046 0.09888562 -0.22876692 -0.0016245798 -0.012537278 -0.017479675 -0.06634299 -0.07475071
0.0037638664 0.07500809 0.01978742 0.20568438 -0.08974942 -0.03364215 0.018643461 0.009771471
0.06550949 0.069511965 0.015782254 -0.023868872 0.10304274 -0.058989193 0.08907782 0.23245956
-0.07352515 0.1060295 -0.05647985 -0.084478244 0.002694142 0.027128024 0.017218672 0.19570802
0.09198667 -0.31563926 -0.121265136 -0.06358238 0.071069494 0.037300278 0.06216391 -0.20700201
-0.0830282 0.018617092 -0.16598943 -0.008314632 -0.02267221 0.09370273 -0.15102725 -0.044104673
-0.17066936 0.05000204 -0.008465251 -0.2815224 0.17680226 -0.029444944 -0.064972 0.12412629
-0.0709039 -0.16329944 -0.07232487 0.28060576 -0.07332998 0.04269384 -0.04067409 -0.0046127383
0.038710468 -0.028384985 0.051143363 0.043288894 0.036574516 -0.04398459 -0.04632837 -0.06673376
-0.048191078 -0.06162753 -0.09063439 0.037568763 -0.11250931 -0.061625812 -0.041881952 0.031753264
0.05682462 -0.07398 -0.016218087 -0.0053451983 0.015204401 -0.03655783 -0.04204153 0.046862986

fc_image.2.bias f4 [50]
00000000: 29cf 20bc 9d95 04bd 7b54 ec3d a99b eebc
00000010: 958d 903d b833 b7bd d5cd bcbd 56e2 063e
00000020: 232e 8b3d 35b9 48bd 6b6e d73d 04a9 9cbd
00000030: 5ebb 1abe ed3b 413c cef5 983c d2b3 273d
00000040: 120e 9b3d 3106 8bbd 7243 e8bc 882a 18bd
00000050: 30a0 ff3c f45b ef3d c22d 763c 3121 033e
00000060: 64f1 59bd 0636 7b3c efe3 77bd 55ad 353c
00000070: 723f 013e 855d ee3c af8d bbbd e53f 1abe
00000080: 82e7 d0bc 4a08 203d 404b ca3c c9d8 053d
00000090: a343 86bc a283 633d 008f e9bc 1afa 40bc
000000a0: b786 133d d5f8 b9bc 4cce 8b3d 2698 4c3d
000000b0: 6e9a dd3c fb20 343c d5cb 123d ff3e f5bc
000000c0: 42a8 50bd cae7 d33c
-0.009815016 -0.032369245 0.11539551 -0.029126959 0.07058255 -0.089454114 -0.09218947 0.13172278
0.06795909 -0.049004752 0.105191074 -0.07649425 -0.15110537 0.011794073 0.018671896 0.040942974
0.07571043 -0.0678829 -0.028352473 -0.037149936 0.031204313 0.116874605 0.015025558 0.1280563
-0.053208724 0.015332704 -0.06052011 0.011088689 0.12621859 0.029097328 -0.091578834 -0.15063436
-0.025501017 0.039070405 0.024694085 0.032677446 -0.016389674 0.055545457 -0.02851057 -0.011778379
0.036017146 -0.02270166 0.068264574 0.049949788 0.027051177 0.010994191 0.03583892 -0.029937265
-0.050941713 0.025867362

fc_other_inputs.weight f4 [100, 11]
00000000: 0dcd 183f 7e1d a4be b02c 5e3d 853d 90ba
00000010: 5808 983e 3e77 833d 1518 03be ccdd 92be
00000020: 1530 593e 09fc 8ebe de65 a9be dab2 9fbe
00000030: e755 a7be d474 783e 8ab0 623e 5489 323e
00000040: 5c33 a43e 439e 523e 830e ecbe b0ee 2bbc
00000050: 8732 353d 7a8c ac3e e318 a13e 6a20 1b3e
00000060: 6719 18be 0e24 60bd b4e2 d2bc 7366 733e
00000070: 42b3 97be 1834 a73e 374a 6d3e 625d abbe
00000080: 5655 b23d 7272 0c3e 560b de3e b63b 323b
00000090: d867 abbd b35b f53c 3d73 b3be 373c a03e
000000a0: 7ef1 3abe e3e3 363e a88b bd3d 4abd 173e
000000b0: d04e c23e 2f2f e7be 3c46 8bbe 605a 8d3e
000000c0: bb0b b8be c2ba 213e 9f0b 4d3e d16c 363c
000000d0: 1a00 cdbe b987 223e 179c b23e 9640 2b3e
000000e0: f2d0 433e f2a0 8a3e 9ad8 f03e a4bd ff3d
000000f0: 3525 de3d 5cbd 843e d34b 4cbe ffe0 3abe
00000100: 875c dbbe 686a 99bd f7c5 f53e a1b4 f7be
00000110: a83d 12be aac7 da3c a0da 8d3d 6558 373d
00000120: 83a0 38be fd55 243e aab8 78be 8ade 81be
00000130: 17fc cbbe 3081 53be 6893 5ebe dbb5 6d3e
00000140: 07ce 8e3e a152 cbbc 8310 85be 2290 e7bd
00000150: ca5c 44be df6a 31bc b6d2 933e 5bd3 50be
00000160: a81b 5dbe 7546 03be ea80 35be 0ee8 6cbd
00000170: 561d a03b 659b 2ebe a3e6 543e 19f5 1c3c
00000180: 6584 19bf beb8 88bd ad7f 573e 9ad2 8bbd
00000190: 1b9c 13be 2be2 7f3e beba 2e3d 2b08 8bbe
000001a0: 0a40 873e c4e7 9f3e c14b 27be 744a 263f
000001b0: 5b25 e63d 1942 fdbe b425 25bf 85b9 a83d
000001c0: df6f d63b 8bcb e03d b280 61be bd66 293d
000001d0: 0448 9abe 9b4a e0be 72a4 1abf a917 88bd
000001e0: 9786 213e 4198 823e a995 1f3e 3523 833e
000001f0: 7d95 05bd c9de bbbd 340f d3bc 8dcd d13e
00000200: 5105 08bf f233 a6bd f3b8 dabd ff4a 85be
00000210: e3d1 8abe 3e39 813e 2d25 5ebe bb67 9a3e
00000220: d697 5dbe 7205 cbbd 1ffc 73be aa21 ad3e
00000230: 961c 31be 3e71 013f 6a88 e7be de4e e1bd
00000240: 27b4 bb3c e1ad 0a3e 5796 273e e736 c2bd
00000250: 4b9d c4be e278 a83c 4315 c5be fc67 b23e
00000260: e8fe abbe 8ccf 83be 20f0 d7bd c1e5 fe3d
00000270: 4999 6b3e 4af3 b53e 5454 493d ffb8 dfbe
00000280: 960e 55be 0110 ce3d 09c6 f53d 3f42 d33e
00000290: 9429 32bc 9806 bdbe 6b39 b1bd 2bb9 61be
000002a0: 6e68 7cbe 6b60 9e3d 2d29 9d3e d514 abbe
000002b0: 1c68 363e d2de e0be e458 2b3e e491 03be
000002c0: 7692 61bd a78d 423e 3ffa 843e db27 163f
000002d0: d0ec 97be 9591 7ebc cabc 8a3e b0c9 d23b
000002e0: 1116 ca3e 28ca 393d 544a 583d 49f3 ab3e
000002f0: 2c09 a23e b0e1 083d 0fc6 31bd 8c13 06be
00000300: e293 a63e 97fd 98be f580 1cbf 5efa 753e
00000310: 5b5c 97bd 49c0 3fbe b6a2 89be 355e f7bd
00000320: 8abe 0cbe 8578 ca3e c063 0fbd 0b6c 9dbe
00000330: e67b 76be e357 7bbe 68ef 42be 52e1 ac3e
00000340: b2cd 403d acc3 83be 5617 a3bd 3c34 183e
00000350: dc4d 85be efdc 363e c8e3 3f3c 965e b0be
00000360: 19bf a2bd 4b35 223e af5e 8a3e e5d7 80be
00000370: 42f0 0abf 5d49 873e e4ac 953d f716 c1bd
00000380: a9b3 21bd 13b7 b53e 5704 ffbd 4cf3 df3e
00000390: f785 163e 22bc a7be dc3d 5a3d f022 2ebe
000003a0: 8ae3 553e c834 97be 1fcd adbe bb74 5fbe
000003b0: a33c c03d 0969 7dbe 707e 8bbe ef89 423f
000003c0: ece0 3d3e d015 3b3b cf12 033f e56c 6b3d
000003d0: bc11 81be e51d 593d 887c 353e 3adc 713e
000003e0: 68d1 283e 0da7 1f3e bd10 713e a12d 13be
000003f0: c669 b13e 4b62 5fbe 86be c8be 9980 b63d
0.5968788 -0.3205375 0.054241836 -0.0011004662 0.29693866 0.06419228 -0.12802155 -0.28684843
0.21209748 -0.27926663 -0.3308553 -0.3119114 -0.32682726 0.24263316 0.22137657 0.17435199
0.32070434 0.20568185 -0.46104822 -0.010493919 0.04423764 0.33700925 0.314643 0.15149084
-0.1485344 -0.054721884 -0.025742866 0.2376955 -0.2962895 0.32656932 0.23172842 -0.33469683
0.08707683 0.13715532 0.43368024 0.0027196235 -0.08369416 0.029950952 -0.35048857 0.3129594
-0.18256184 0.1786037 0.09255153 0.14818302 0.37950754 -0.45153186 -0.27202022 0.27608013
-0.3594645 0.15793899 0.20023964 0.011134342 -0.4003914 0.15872087 0.34884712 0.16723856
0.19122675 0.27075917 0.47040254 0.12487343 0.108469404 0.2592572 -0.199508 -0.18249892
-0.4284403 -0.074909985 0.48002598 -0.48379996 -0.14281332 0.026706535 0.06926465 0.044762034
-0.1802998 0.16048427 -0.24289194 -0.25365096 -0.39840767 -0.2065475 -0.21735919 0.23213904
0.2789156 -0.024819674 -0.2598916 -0.11306788 -0.19176021 -0.010828703 0.28871697 -0.20393126
-0.21592581 -0.12819846 -0.17724958 -0.057838492 0.0048863096 -0.17051466 0.20791106 0.00957992
-0.59967643 -0.06675862 0.21044798 -0.068272784 -0.14415018 0.2498862 0.04265856 -0.2715467
0.26416045 0.3123151 -0.16337492 0.64957356 0.11237594 -0.4946449 -0.64510655 0.0823851
0.006544098 0.10976323 -0.2202175 0.041357744 -0.3013307 -0.4380692 -0.60407174 -0.06645138
0.15773998 0.25506786 0.15584435 0.25612798 -0.032613266 -0.09173352 -0.025764085 0.40977135
-0.5313311 -0.081153765 -0.106798075 -0.2603378 -0.27113256 0.25238985 -0.21693869 0.30157265
-0.21639952 -0.09913148 -0.23826645 0.33814746 -0.17296061 0.5056342 -0.45221263 -0.11001371
0.022913052 0.13542892 0.16365944 -0.09483128 -0.38401255 0.020565454 -0.38492784 0.3484496
-0.33592916 -0.25744283 -0.10543847 0.12446166 0.23007692 0.35537177 0.049152687 -0.43695828
-0.20806345 0.10061646 0.12000663 0.4126148 -0.010874171 -0.36919093 -0.0865353 -0.22043292
-0.24649212 0.07733234 0.30695477 -0.3341433 0.17813152 -0.43919998 0.16733128 -0.12848622
-0.055071317 0.18999349 0.25972173 0.58654565 -0.2967286 -0.015537639 0.2709716 0.0064327344
0.3946996 0.045358807 0.05280526 0.3358405 0.31647623 0.033418357 -0.043401774 -0.13093394
0.325347 -0.29880974 -0.6113427 0.24021289 -0.07390662 -0.18725695 -0.2688195 -0.120785154
-0.1374456 0.39545074 -0.03500724 -0.30746493 -0.24070701 -0.24545245 -0.19036639 0.33765656
0.047071166 -0.25735223 -0.07963435 0.14863676 -0.26035964 0.17857717 0.011712022 -0.34447163
-0.07946605 0.15840642 0.27025363 -0.25164714 -0.54272854 0.2642316 0.07308367 -0.09428208
-0.039477978 0.35491237 -0.12452 0.43740308 0.14699541 -0.3276072 0.05328165 -0.17005515
0.2088758 -0.29532456 -0.33945557 -0.21821873 0.093865655 -0.24747099 -0.27244902 0.7599172
0.18542832 0.0028546937 0.51200575 0.057476897 -0.25208843 0.053007025 0.17723286 0.23619166
0.16486132 0.15591069 0.23541541 -0.14372875 0.3465101 -0.2181484 -0.39207858 0.08911247

fc_other_inputs.bias f4 [100]
00000000: 8d80 2cbd 6da3 28be b102 673e 0834 953d
00000010: c6c2 7bbe c3cf 1e3d 4997 09be 545a 493e
00000020: 5013 1dbe ba33 5c3e 2bb7 583e c6d6 9abe
00000030: 1a93 683e 377d 433e e227 afbe 3de1 553e
00000040: b8b6 313e f519 39bd 1ec2 903e 34c0 52bd
00000050: 7c41 6abe 541d 30bd 4c44 7f3e 5f75 0abe
00000060: 1bde f8be 1476 f33d f6eb ee3d fb62 9cbd
00000070: fdb9 173e 1ddd ecbe 152c b43e 9bb2 073e
00000080: 02e4 b53d cd51 45bf fb84 eabe ebf8 48bf
00000090: 1b0e 18bd dbb7 913d a9e9 b8be 4dab 07bf
000000a0: 082e 033d de1f 3c3e 8c43 71be af70 a6be
000000b0: ec06 ecbe 6c19 17be 7de7 c5be c77c 863c
000000c0: 7482 3e3e c464 b1be 81d1 573d 9e1e a93b
000000d0: 2676 dbbe 7bd7 1abe ed9d cd3d 8616 19be
000000e0: 1092 8f3d 18b1 69bd 927d b43d 1bc3 10bf
000000f0: 28ff 81be 10c5 10be 6509 fdbe 0797 8ebe
00000100: b9f2 d5bd acc6 bdbe 2ea4 023e 13c2 bebe
00000110: d749 8c39 f4dc 40bd 96d7 cdbe d64b 29bf
00000120: 043c 843d a583 f1bc 556c 803d 0267 b8be
00000130: ea7c 25be a2c4 83be 04b9 5c3c 48ed 22bf
00000140: 4642 6c3c b766 e8be ad42 3abe cfe7 d0be
00000150: 601a a2be 10b7 21bd 577f 973e ca94 0bbe
00000160: 6f7d 3e3c eaf0 473d 402b c53e 38d6 eb3d
00000170: ff95 6e3e 1b38 0d3c 5a92 2fbd 89d0 15be
00000180: a7f2 3e3d f497 3fbd 2c6a 9abd 09c0 37be
-0.042114783 -0.16468592 0.2255962 0.07285315 -0.24586019 0.038772356 -0.13436617 0.19663364
-0.15339398 0.21504107 0.21163623 -0.30241984 0.22712365 0.19090734 -0.34210116 0.20886703
0.17354858 -0.04519077 0.282731 -0.05145283 -0.22876543 -0.04299672 0.24928397 -0.13521336
-0.48606953 0.11887756 0.116661 -0.076360665 0.14817043 -0.46262446 0.35189882 0.13251726
0.0888138 -0.77077943 -0.4580458 -0.7850482 -0.037122827 0.07115146 -0.3611577 -0.5299576
0.03202632 0.18371531 -0.23560923 -0.32507846 -0.4609903 -0.14755791 -0.38653174 0.01641692
0.18604451 -0.3464719 0.052690033 0.0051611206 -0.42863578 -0.15121262 0.100398876 -0.14949998
0.07010281 -0.057053655 0.08813013 -0.5654771 -0.2538998 -0.14137673 -0.4942123 -0.278496
-0.10446686 -0.37065637 0.12757942 -0.37257442 0.00026757896 -0.047085717 -0.40203542 -0.6613134
0.064567596 -0.029481718 0.06270663 -0.3601609 -0.16160932 -0.25735956 0.013471846 -0.6364331
0.014420098 -0.45390865 -0.18189497 -0.40801856 -0.31660748 -0.039481223 0.2958934 -0.13630977
0.011626585 0.048813738 0.3850956 0.11515468 0.23299406 0.008619334 -0.04286418 -0.14630331
0.04661813 -0.046775773 -0.07539782 -0.1794435

ensemble.0.0.weight f4 [50, 150]
00000000: 8139 debe b925 933d 8646 82bd 6beb 9d3c
00000010: 7f0b 6e3d aff8 cebd d27f b03c 4bc4 953d
00000020: 4a46 893e c979 2ebc cf45 d7bd a392 3bbe
00000030: 8010 5a3d deb5 97bd 6064 673d 15ca 67be
00000040: 1c3c 683d 608f 88bc 0f05 89bb 792c 413e
00000050: edc1 583d bb20 b13d f669 373e 5fa6 773d
00000060: ffda e63d 00cf 623d 7ff2 a3bc 28aa 563e
00000070: dda1 f5bd cdd3 94bd 592e 133d 8d69 0cbe
00000080: 154f b93e d19a 403c d3e0 3c3e 2756 743c
00000090: ba50 7a3a 8aae 50be e38d 7ebe f0fa 053e
000000a0: 2275 58b9 1195 7ebe 57ab 8cbe 6d45 e83d
000000b0: 0a65 b03c 641a ed3d e0a6 6cbe ab9b 98be
000000c0: bfe5 a33d 1c1d 753d a8f9 39bd dd71 aebe
000000d0: 992d 013d 6211 253e e315 13be 2f1f 243d
000000e0: b1c8 24bd 3dee ab3c 8b3b 68be df24 493c
000000f0: f469 d2bc 9d89 e43d 4cc8 4dbe 6b97 1d3e
00000100: 076a 2dbe b572 20be 1c5b c0bd 58d9 90bd
00000110: c8f8 84bd 49f2 4ebc 2f2b f0bd 1f7b 253d
00000120: d29b 2c3c 8066 c7bd aa52 a7be 996b 3a3e
00000130: 1a35 c43d 8f83 39bc ef43 cc3c 50d8 c5bd
00000140: e839 3c3d e6f3 b23d 9aac 06bd 636d b8be
00000150: b902 21be c53d 07bd be6b 29be 5b7f 70bd
00000160: b074 cdbe 6df3 88bd cc07 38be a80f 00be
00000170: 1f51 42be 25d5 42bd e4b6 0cbe 3bfe c6be
00000180: 4609 0ebe bdb8 cb3d 0b53 253e b44a b73d
00000190: a1ea d1bd bec0 a33d 8a36 41bd 9074 a2bd
000001a0: f96f db3d f1d5 0cbe 775f 92bd 06bd 83be
000001b0: 358a 0c3e 61cb 76bd 16ec 8ebe a545 5abe
000001c0: 5f2a 35be d23c 9bbe 85c2 6fbd 50b3 2b3d
000001d0: 2b63 25bb f8bf 11be 7d97 9dbe 23e9 3fbe
000001e0: 6584 42be 1920 f8bd f6b3 d03c 07a4 cfbd
000001f0: b717 b83d d3d1 11be 9b42 f8bd 4d6b 45be
00000200: 01f9 37be 7940 28be da34 83be 428b 1fbe
00000210: db77 a0bd 9fa3 9abe eac4 fcbd c2c1 3ebd
00000220: fe50 633d e91f 9b3c 8671 e1bd ab00 b8be
00000230: 34e5 673c 53a4 00be e67c ea3c 43a3 1cbe
00000240: ac73 cbbd 5dfe b6be 58a5 36be b02e 82be
00000250: 5603 2dbe 4b83 ecbd 31a3 103d 9dfc be3e
00000260: c6a0 a4be 03c1 56be f966 2d3e 53f9 2039
00000270: 3ec7 45bc 4d2e 81bd 36f7 27ba 6375 44bc
00000280: 2ccf 02be 2de8 813e c1b2 aabd 745c 9f3e
00000290: e816 d8be 9a86 92bd ec40 a1bd d00d a33d
000002a0: 714c 29bd 8eef 17be 120d debd db0c 1fbd
000002b0: 7c51 6abe d693 563e f4db b7be d5bf f33d
000002c0: 15fa c5bd 0c89 36be 27d2 0d3d 8c52 503d
000002d0: bb08 03be d606 7c3e 42e1 a13d 93b3 47be
000002e0: 9bb9 00be f262 d23d 3194 e5bd 1a00 303e
000002f0: d5ab e53d 9ff9 5ebd 563d 03be d7b1 c63c
00000300: 1a99 32be 9821 93be 43ff 363e 1763 86be
00000310: 847d 8e3d cbd5 33be 7a9a 3c3e da36 b33c
00000320: 1284 c1bd 635d e63b f2a5 2f3e 9bf3 563c
00000330: 9510 f8bc 64ff 6fbd 1f03 12bd 6d7f 8cbe
00000340: 5901 34be 6e0b 05be 7957 96be 1805 94be
00000350: ed5b a1be e388 40bd 3c5d 93be 38e2 98bd
00000360: 8ffb 15bd 0ebc 743e 648f 8abe ef06 f4bd
00000370: 2cae 583e 29fc 683d 7c4b 4fba 9923 a63e
00000380: d5d6 97be 9a13 d53d e1b6 d43d e03f bdbb
00000390: ea28 5dbd a8a1 35be 7b4c 8cbd 5ba9 c23d
000003a0: b833 40be ac63 8d3d 3d4a 73bd 45fd ff3d
000003b0: a24c bbbc c429 0e3e a02d 513e e425 943d
000003c0: 7796 873e 74b0 103e 9a56 b5bd 7e64 073e
000003d0: 10ba 293e 02f4 f53d df83 c43e 381c 5dbd
000003e0: cff0 263e d1b4 ef3d 4346 44bd 85c5 8a3d
000003f0: 728f 6d3e f009 0a3c 0d63 2d3d 1031 9f3e
-0.43403247 0.071849294 -0.063611075 0.019277295 0.058116432 -0.101060264 0.021545324 0.073128305
0.2681144 -0.010649153 -0.10511362 -0.18317656 0.053238392 -0.07407735 0.05649221 -0.22635682
0.05669795 -0.016669929 -0.0041815112 0.18864621 0.052919317 0.08648821 0.17911515 0.0604614
0.11272239 0.05537319 -0.020013092 0.20963347 -0.119937636 -0.0726696 0.035932872 -0.1371214
0.36193147 0.011755661 0.18445139 0.014913118 0.00095487724 -0.20379081 -0.24858813 0.13084006
-0.00020643 -0.24861552 -0.27474472 0.11341367 0.021532554 0.11577299 -0.23110533 -0.29806265
0.08002805 0.059842214 -0.045404106 -0.34071246 0.031537626 0.16119912 -0.14363818 0.0400688
-0.040230457 0.020987624 -0.22678964 0.012276857 -0.025685288 0.1115906 -0.20095938 0.15389793
-0.16934977 -0.15668757 -0.09392378 -0.07072705 -0.06492764 -0.0126310075 -0.117269866 0.04040062
0.010535197 -0.09736347 -0.32680255 0.18205108 0.09580441 -0.01132287 0.024934737 -0.09660399
0.04595366 0.08737926 -0.03287945 -0.36020955 -0.15723695 -0.033017892 -0.16545007 -0.058715206
-0.40128088 -0.06687055 -0.17971724 -0.12505972 -0.18976258 -0.04756655 -0.13741642 -0.38865837
-0.13870725 0.099473454 0.1614496 0.08949795 -0.1024983 0.07995747 -0.047171153 -0.07932389
0.107147165 -0.13753487 -0.07147115 -0.2573015 0.13724597 -0.06025255 -0.27914494 -0.2131563
-0.17691945 -0.3031984 -0.058535118 0.041919053 -0.002523611 -0.14233387 -0.3077964 -0.18741278
-0.18995817 -0.12115497 0.025476437 -0.101387076 0.08988898 -0.14240198 -0.12122079 -0.19279213
-0.17966081 -0.16430844 -0.2562626 -0.15580466 -0.078353606 -0.30202958 -0.12342246 -0.0465715
0.055497162 0.018936114 -0.11007981 -0.3593801 0.014153767 -0.12562685 0.02862401 -0.15296654
-0.09934172 -0.3574094 -0.17836511 -0.25426245 -0.16895804 -0.1154848 0.03531188 0.37302104
-0.3215391 -0.20972066 0.16933812 0.0001535167 -0.012071429 -0.06307659 -0.0006407382 -0.011990878
-0.12774342 0.2537245 -0.08334876 0.31125224 -0.42204976 -0.071545795 -0.07873711 0.07961619
-0.041332666 -0.14837477 -0.10842337 -0.03883062 -0.22882646 0.20954832 -0.35909998 0.119018234
-0.0966684 -0.17825717 0.034624245 0.050859973 -0.12796299 0.24611983 0.07904293 -0.19502096
-0.12570803 0.102727786 -0.11209906 0.17187539 0.11214415 -0.054437276 -0.12816367 0.024254723
-0.17441216 -0.28736567 0.17870812 -0.26247475 0.06957534 -0.17562024 0.18418303 0.021876741
-0.094490185 0.0070301755 0.17153147 0.0131196035 -0.030281344 -0.05859317 -0.035647508 -0.27440968
-0.17578639 -0.12992641 -0.2936361 -0.28910136 -0.31515446 -0.047005545 -0.2878207 -0.07465023
-0.036616858 0.23899862 -0.27062523 -0.11915385 0.21160191 0.056881104 -0.00079076714 0.32449034
-0.2965609 0.10404129 0.10386444 -0.0057754368 -0.053994097 -0.17737448 -0.06850525 0.09504958
-0.18769729 0.069037765 -0.05939697 0.12499479 -0.02286369 0.1388312 0.20427561 0.072337896
0.26481983 0.14129812 -0.088544086 0.13221928 0.16574883 0.120094314 0.3838186 -0.05398199
0.16302799 0.1170441 -0.04791857 0.06775955 0.23199251 0.008425221 0.04233079 0.3109212

ensemble.0.0.bias f4 [50]
00000000: 1a77 f53c 03e5 91bd 643b 173d 2a0a ef3d
00000010: a440 67bc 6613 40bd 2aeb 5a3b df8d 53bd
00000020: 5120 60bd b370 09bd 40d5 f63d e5f9 74bd
00000030: f15a 32bd c4fc 8a3d ebcc cb3d 62a6 5dbd
00000040: 9ef0 24bd aaa0 02bd c3f9 23bd ee1c cfbe
00000050: 911e df3c 3b31 bfbd a5a2 94be dff4 353d
00000060: 981a 1d3d 7ff0 cf3c 3150 0cbe 995c 5bbe
00000070: 5982 35be b850 483d fa85 1a3c 1721 39bd
00000080: 952c 5abe 5bbc c2bd 17f5 02bd f2d1 f0be
00000090: ab72 7e3c 6649 e4bc 80ca 64bd a2e0 b4bd
000000a0: 50e6 1bbd 9451 9cbd 9462 29bd 14f8 68bd
000000b0: 38e7 51bd 2197 babd 5d88 15be adc5 71bc
000000c0: 3ab1 99bd edfa fdbd
0.029964019 -0.07123759 0.036921874 0.116718605 -0.014114533 -0.0468935 0.003340433 -0.05164897
-0.05471832 -0.033554744 0.12052393 -0.05980863 -0.04354376 0.067864925 0.099511944 -0.054113753
-0.040268533 -0.031891502 -0.040033113 -0.4045176 0.027236255 -0.09335562 -0.29030338 0.04442298
0.03835544 0.025383232 -0.13702466 -0.21422042 -0.17725505 0.048905104 0.009431357 -0.045197573
-0.21306069 -0.09508582 -0.031972017 -0.47035176 0.015530269 -0.02786703 -0.05585718 -0.08831908
-0.03806144 -0.07632747 -0.041353777 -0.05687721 -0.051245898 -0.09110857 -0.146028 -0.014756602
-0.075045064 -0.12401376

ensemble.0.2.weight f4 [25, 50]
00000000: 69fa 2cbe bfb3 3c3e 28be cdbe 4510 a9bd
00000010: f3d5 f83d 42f7 223e e7a7 fc3c c5eb 683c
00000020: 23f1 d5be 2cfb 723e 0853 50be c3d7 b8bd
00000030: 8322 c03d d4d0 643c 95c3 9abd 6444 0a3d
00000040: 34cc b43d dd9b 10be 8a10 3a3d f4c9 5f3e
00000050: 1077 433d 6b31 623f 72c4 8cbe 8fab 9bbe
00000060: 236c fbbc 0fe0 4fbe e3be 44bd 50fb a03e
00000070: 823d cebd 237a 0f3c 677b e93d 0b58 c13d
00000080: f0d6 2fbe ffec c4be 2ca1 b1bd 3d67 603c
00000090: 0aa6 e8bc 2e2e 0ebc de85 3b3c 7296 f73c
000000a0: 9015 ad3d cae2 d2bd 6d20 87bd 628b e13d
000000b0: 6007 1c3e c049 b83e 7831 f53c 9b30 ba3c
000000c0: 28c9 683d 6a9b fe3d 5487 8dbd 2302 3cbe
000000d0: e03f 083c 90af 31be 292a 85bc 28ed 94bd
000000e0: 9f6b 37bd 9d74 7dbd 6b80 e6bd e312 b4bd
000000f0: fb00 a13d dc33 3fbd 120b 443d 9fe5 99bd
00000100: b948 81bc 4120 58be 74b5 f1bd 438d 60bd
00000110: d235 f53d 6fc9 a83d 09e5 6abd 4bd9 eb3d
00000120: ed5e 043d 69de 85bd 2d81 27be dbcc 30be
00000130: 9542 963c f31c eabd eeba 25bc d261 433d
00000140: 7185 f5bd 70ad b1bc 12f2 9ebd af42 d03d
00000150: 5c55 cebd e311 b3bd f0ed ac3d bd58 7f3c
00000160: 6c5c 7dbb 190a 51be 9fa1 06be ca20 58bd
00000170: 63b3 ebbc 7f89 9cbc 4b87 45be 54ef 29bb
00000180: 6ee0 c9bc 6f63 073d 7a78 bc3d e4a5 163e
00000190: 5460 00bb 7651 953d 174e 0e3e 6a73 bcbe
000001a0: a03c 573d e87d cdbd be2e 213e 4ca1 b3bd
000001b0: db01 353e bde4 0c3e d2be ccbd ac3d 343e
000001c0: 9a82 e33d a635 023e b935 bf3d d163 acbe
000001d0: 11a5 d53c 82ec e3bd c61f 373d 5740 b7be
000001e0: 9f98 ed3c 4782 a6be 0b43 20bf a0a2 453c
000001f0: 5199 bf3d 71b3 c83c d52f a63d f42c 9abe
00000200: 2c6e 7f3d d7cb 3abe e00e 193c 6a2b 99bd
00000210: e398 92bd f046 ea3d c191 ebba bfed 32bf
00000220: 8f0e 87bd ec06 c1be ae8b 18bb fbfe 84be
00000230: 0442 c53d 1afd 923d 0380 57bd e9cc e33a
00000240: 3a6d 573d ced4 01bf 78b5 f7bb ce96 003d
00000250: cb99 9e3d 84b9 863d 59d8 043d 853e f5bd
00000260: 8b39 39bd 9073 46bd e1d1 6abc e05b 143e
00000270: 6dc3 51bd 929c 41bd 8ca5 063e e163 8e3d
00000280: ab88 febd 1da9 babd 4391 803d 4af3 1abe
00000290: f1ce 533d 55fc 0fbd 775b 123d 955d 25bd
000002a0: dd16 11b9 5aa5 383d 5014 f6bd 67de fabd
000002b0: c12b 15bd 83e4 a4bd 1f0f 1cbe 5fdc bfbd
000002c0: 44c4 81bc 90dd 0cbe c133 f7bd 4a83 d7bc
000002d0: d507 31be 29e8 cebd feea 73bd d6f0 cc3d
000002e0: 434e 96bd 24fe 0f3e 6231 99bd beb3 00be
000002f0: 4dcf 043d a934 0ebe ac43 fcbc 730a f33d
00000300: 29e7 453d 06da 513d 7fc3 b8bd c96c 4a3c
00000310: 9462 0ebd eb35 cbbc 7e37 fc3d d497 20bd
00000320: 06e3 b03c 227f e83d 4e75 1c3e 65b2 e83d
00000330: 5e28 8dbd 2df9 7dbd eed3 533e a24d c63e
00000340: 7b27 4fbe e849 b43d 4e36 bf3c 1bad 5d3d
00000350: d930 c83d 6319 cbbe 7572 a53e 784c af3d
00000360: ab75 4bbd 07f0 42bd e798 8e3d d578 7dbe
00000370: 79c9 f1be d7ef b9bd 4286 9bbe a1dc 44be
00000380: d124 97be 0c9f f13d 78a1 ecbd 8079 223e
00000390: 2430 d0bd b3ad 803b 748a 78bd b728 07be
000003a0: 04d4 23bd 2812 2cbf dd0c b53d 9c3a b8be
000003b0: 7e21 df3d fa1c 59bb fc57 e73d 87a0 b1bd
000003c0: 3fbf a3be 46d5 ac3d ff5a ce3c 0dc5 0fb7
000003d0: 99a7 bfbe a3d3 4cbe d0e9 95bc 6094 dabd
000003e0: 368b 07be ce95 ea3c 7823 2cbe 80e9 aebc
000003f0: 6264 593e 66b6 c73d 623d 053d 4f91 ffbc
-0.16892399 0.18427943 -0.4018414 -0.08255056 0.121501826 0.15914634 0.03084178 0.014216368
-0.41785535 0.23728627 -0.20344174 -0.09025528 0.093815826 0.013965804 -0.075568356 0.03375663
0.08828011 -0.14121957 0.04542593 0.21854383 0.04772097 0.88356656 -0.27493626 -0.30404326
-0.030691212 -0.20300315 -0.048033606 0.31441736 -0.100703254 0.008757147 0.1140049 0.09440621
-0.17171836 -0.38462064 -0.08673319 0.013696489 -0.028399486 -0.008678002 0.011445491 0.030223105
0.08451378 -0.10297163 -0.065979816 0.11012913 0.15237188 0.35993767 0.029930815 0.022728255
0.056832463 0.12431987 -0.069105774 -0.1836019 0.00831601 -0.17352128 -0.016255455 -0.072717965
-0.04478037 -0.06187879 -0.112549625 -0.08792665 0.07861515 -0.046680316 0.04786212 -0.075145
-0.015781747 -0.21106054 -0.118021876 -0.054822218 0.11973156 0.082415454 -0.05734733 0.11516055
0.03231709 -0.06536562 -0.1635787 -0.17265646 0.018342296 -0.11431303 -0.010115368 0.04770071
-0.119883426 -0.021689147 -0.07761015 0.10168969 -0.10074875 -0.08743646 0.084438205 0.015585122
-0.0038659824 -0.20414008 -0.13147591 -0.052765645 -0.028772062 -0.019108532 -0.19289891 -0.0025930004
-0.02464315 0.03305381 0.092026666 0.1471172 -0.0019588666 0.07290928 0.13896976 -0.36806804
0.05254805 -0.1003378 0.15740487 -0.08770999 0.17676489 0.13759132 -0.099973336 0.17601651
0.11108895 0.12715778 0.09336419 -0.33669904 0.026079686 -0.11129095 0.044708036 -0.35791275
0.02900344 -0.3252127 -0.626023 0.012062699 0.09355415 0.024499627 0.08114592 -0.30112422
0.062360927 -0.18241821 0.009341925 -0.07478984 -0.07158067 0.114393115 -0.0017972515 -0.6989402
-0.06594574 -0.37700593 -0.0023276615 -0.25975785 0.09631732 0.071771815 -0.052612316 0.0017379794
0.0525944 -0.5071534 -0.0075594746 0.03139382 0.077441774 0.06578353 0.032432888 -0.11974815
-0.045220893 -0.048450053 -0.014332266 0.14488173 -0.051211763 -0.047268458 0.13149089 0.06952644
-0.12428411 -0.09114287 0.062777065 -0.1513187 0.051711027 -0.035152752 0.03573176 -0.04037245
-0.00013836795 0.045079567 -0.12015593 -0.12249451 -0.03641868 -0.08051398 -0.15240143 -0.09368204
-0.015840657 -0.13756394 -0.12070418 -0.02630772 -0.17288144 -0.10102875 -0.059550278 0.10006873
-0.07339146 0.1406179 -0.07480122 -0.12568566 0.03242426 -0.13887276 -0.030793987 0.118672274
0.048316155 0.051233314 -0.09021663 0.012355038 -0.03476198 -0.024805984 0.12315272 -0.039207295
0.021592628 0.11352374 0.15279123 0.11362151 -0.06892465 -0.06200521 0.20686314 0.38731104
-0.20229904 0.08803159 0.023341324 0.054120164 0.09774942 -0.39667806 0.32313886 0.08559507
-0.049672764 -0.04759219 0.069627576 -0.24753125 -0.47224024 -0.09078949 -0.30375868 -0.19224788
-0.29520276 0.11797914 -0.11554235 0.15866661 -0.10165432 0.0039269566 -0.060678914 -0.13199125
-0.039997116 -0.67215204 0.08840344 -0.35982215 0.1089506 -0.0033128844 0.112960786 -0.08673196
-0.31981847 0.08439116 0.025189875 -8.569344e-06 -0.37432554 -0.20002608 -0.018299967 -0.106728315
-0.13236699 0.028635886 -0.16810405 -0.021351576 0.21229699 0.097515866 0.032529242 -0.031197218
