envs/utils/student_policy.pth (torch, 9359 bytes, 6 tensors)

policy_network.0.weight f4 [32, 18]
0	0xbc02ad55	-0.007975896
1	0x3e89ab96	0.26888722
2	0xbd6856c8	-0.056723386
3	0xbdd5e06c	-0.10443196
4	0xbe0d1747	-0.13778411
5	0x3e82c943	0.25544176
6	0x3e2601ee	0.16211674
7	0x3cefabd9	0.029256748
8	0x3e60c178	0.21948802
9	0xbe4dd081	-0.20099069
10	0xbc326a4e	-0.010889603
11	0xbcd3cbff	-0.025854109
12	0xbe2d3cd2	-0.16917732
13	0x3e015a54	0.12632114
14	0xbdf4bb19	-0.119497485
15	0x3e29b155	0.16571553
16	0x3ea98f8c	0.3311733
17	0xbdf43522	-0.11924197
18	0x3dd387bc	0.10328624
19	0xbe547bee	-0.207504
20	0x3b3be673	0.0028671294
21	0x3d906cca	0.07052
22	0x3e270be0	0.16313124
23	0xbdf37ce2	-0.11889054
24	0xbbbdbea2	-0.0057905475
25	0x3dceb99b	0.10093995
26	0x3db48ff5	0.0881652
27	0x3e2686bb	0.16262333
28	0xbe2fef08	-0.17181027
29	0xbe533d2f	-0.20628808
30	0xbdf3c6a9	-0.11903126
31	0x3e54cd0c	0.20781344
32	0xbe165ae8	-0.14683115
33	0xbd03f72f	-0.032218155
34	0x3dab6f79	0.08370871
35	0x3e37619a	0.17908326
36	0xbe450660	-0.19240713
37	0xbe3329ea	-0.17496458
38	0xbd85f7f6	-0.065414354
39	0xbdd3b16a	-0.103365734
40	0xbe08314f	-0.1330006
41	0x3e62bf15	0.22143205
42	0xbdeb1019	-0.1147768
43	0x3d668c9d	0.056286443
44	0x3e46960a	0.19393173
45	0x3d983df9	0.07433695
46	0x3cbb163a	0.022837747
47	0x3e4fcba3	0.20292525
48	0xbd802f3c	-0.06259009
49	0x3d950894	0.07277027
50	0x3e5e70ca	0.21722713
51	0x3e5ded67	0.21672593
52	0xbdbf170c	-0.09330568
53	0xbe311eca	-0.17296901
54	0xbe42d054	-0.19024783
55	0xbde536b0	-0.111920714
56	0x3d2634e7	0.040577795
57	0xbe3e810c	-0.18603915
58	0x3e30b958	0.17258203
59	0x3e607b36	0.21922001
60	0x3dc0e7ce	0.09419213
61	0x3dbb452a	0.091440514
62	0x3d0f8060	0.035034537
63	0x3ce85dd8	0.02836506
64	0xbe6ff0b6	-0.23431668
65	0x3dd6ee04	0.10494617
66	0x3dbae28b	0.09125241
67	0x3d9903ed	0.07471452
68	0x3c53368e	0.012891425
69	0xbded4905	-0.11586193
70	0xbe06fe74	-0.13183004
71	0xbd3744b2	-0.044743247
72	0x3e44f5c8	0.19234383
73	0xbd85cca2	-0.06533171
74	0x3d7095fe	0.058736794
75	0xbb0aa92b	-0.002115796
76	0x3e0d75b9	0.13814439
77	0xbd8bde7f	-0.06829547
78	0xbd54ff1c	-0.052001104
79	0xbe0b2a61	-0.13590385
80	0x3e15002d	0.14550848
81	0x3d7f5cd4	0.062344387
82	0x3e4bec83	0.19914441
83	0x3de2f012	0.11080946
84	0x3e067016	0.13128695
85	0x3e4ef489	0.2021047
86	0xbd5c8f5f	-0.053847667
87	0x3de1e044	0.110291034
88	0xbdcb36e5	-0.0992258
89	0x3e0e1a3e	0.13877198
90	0x3e09fbb6	0.13474926
91	0x3e71196f	0.23544858
92	0xbcde3895	-0.02712659
93	0xbe4b0c4a	-0.19828907
94	0xbb50b408	-0.0031845588
95	0x3e707499	0.23481978
96	0xbe488158	-0.1958059
97	0x3e17f2f1	0.14838769
98	0x3da1436f	0.0787419
99	0xbe7fa5c1	-0.24965574
100	0x3d06119d	0.03273164
101	0xbc12feef	-0.008971914
102	0xbd704d65	-0.05866756
103	0xbd96ab7d	-0.073569275
104	0x3e0d12a1	0.13776638
105	0xbe0d1266	-0.1377655
106	0x3e59f8be	0.21286294
107	0x3e6a4d73	0.22881107
108	0x3dd2823b	0.10278746
109	0xbe2087c9	-0.15676798
110	0xbe0a0a95	-0.13480599
111	0x3e3ae27a	0.18250456
112	0x3dfc540a	0.12320717
113	0xbd9407d7	-0.07228058
114	0xbe339496	-0.1753715
115	0xbe151f38	-0.1456269
116	0x3cb7a9e0	0.02241987
117	0xbe59b240	-0.21259403
118	0xbc78d7de	-0.0151881855
119	0xbe557af9	-0.20847692
120	0x3e158df3	0.1460493
121	0xbe31eac0	-0.17374706
122	0x3c12658e	0.008935345
123	0xbd54db5b	-0.051967006
124	0xbe017f00	-0.12646103
125	0x3dbf2f4b	0.09335192
126	0xbcb538a1	-0.02212173
127	0xbe538f28	-0.20660079
128	0x3e5ef981	0.21774866
129	0xbe46c9ff	-0.19412993
130	0xbc3bda55	-0.011465629
131	0x3d7bca43	0.06147219
132	0x3e62a0d3	0.22131662
133	0xbd9e8129	-0.07739479
134	0xbd1e180d	-0.038597155
135	0x3e70e40b	0.23524491
136	0xbcc0999d	-0.023510749
137	0xbda24931	-0.079241164
138	0xbe6e75ee	-0.23287174
139	0x3ddd7637	0.10813563
140	0xbdd3d2b2	-0.10342921
141	0xbe1a509d	-0.15069814
142	0x3e1693cf	0.14704822
143	0x3e47f99c	0.19528812
144	0xbd519657	-0.051168766
145	0xbd92de44	-0.071713
146	0x3d696ca7	0.056988385
147	0xbe22c53f	-0.15895556
148	0xbd7c687b	-0.061623078
149	0x3d7fdec1	0.062468294
150	0xbe3a8c40	-0.18217564
151	0xbc78ebed	-0.015192968
152	0xbe197565	-0.14986189
153	0xbe6dde05	-0.23229225
154	0xbdb84068	-0.089966595
155	0xbe0c3b8c	-0.1369459
156	0x3e0f12c0	0.13971996
157	0x3e61774e	0.22018167
158	0xbd3dca57	-0.046335544
159	0xbe33ad06	-0.17546472
160	0xbe8444b3	-0.25833663
161	0xbe0fbad9	-0.1403612
162	0xbdf53bb0	-0.11974275
163	0xbe43398c	-0.19064921
164	0xbdbebb0c	-0.0931302
165	0xbdbe5bc5	-0.092948474
166	0x3d47530d	0.048663188
167	0x3e7e50a8	0.24835455
168	0x3d81d401	0.06339265
169	0x3d905eb2	0.07049312
170	0x3dd6e550	0.10492957
171	0xbd6cdd82	-0.057828434
172	0xbdd7b753	-0.10533013
173	0xbdd4c4c2	-0.10389091
174	0x3c93707c	0.017997973
175	0xbdbe29f8	-0.09285349
176	0xbd043cd0	-0.032284558
177	0xbd87db8f	-0.06633674
178	0x3da27bf0	0.079337955
179	0xbe054522	-0.13014653
180	0xbdc07f12	-0.09399237
181	0x3e38fe24	0.18065697
182	0x3dada10d	0.084779836
183	0xbdf56342	-0.119818226
184	0x3e39751b	0.18111078
185	0x3e808734	0.25103152
186	0xbdaf7dbc	-0.08568904
187	0xbe0ee1b2	-0.13953283
188	0xbda6564f	-0.08121931
189	0xbe83bb18	-0.2572868
190	0x3d54d1b6	0.05195781
191	0x3e4f3883	0.20236401
192	0x3e85c811	0.261292
193	0xbe221301	-0.15827562
194	0xbe2bcc0c	-0.16777056
195	0x3e8270f3	0.25476798
196	0x3d594805	0.0530472
197	0x3ddfbc3b	0.10924574
198	0x3dd20bbe	0.10256146
199	0x3e08721a	0.13324776
200	0x3d605873	0.05477185
201	0x3e507f0f	0.20360969
202	0x3e386275	0.18006308
203	0x3dc1328a	0.09433468
204	0xbe4b3f33	-0.19848327
205	0x3b2526dc	0.0025200164
206	0x3d9f86fb	0.07789417
207	0x3e702419	0.2345127
208	0x3ca96371	0.0206773
209	0x3e53465f	0.20632313
210	0x3e0a83a7	0.13526784
211	0x3dd55b60	0.10417819
212	0xbd80b95f	-0.06285357
213	0xbe3467bf	-0.17617701
214	0x3e0afc93	0.13572912
215	0xbd9f74f7	-0.07785981
216	0x3b22d55f	0.0024846417
217	0xbdaa62e1	-0.08319641
218	0xbe65112b	-0.2236983
219	0x3e218488	0.15773213
220	0x3df876ac	0.1213201
221	0xbe379fe8	-0.17932093
222	0xbd6a12db	-0.05714689
223	0xbc5d1e97	-0.013496063
224	0xbdfcac65	-0.12337569
225	0x3bff1f4a	0.0077857124
226	0xbdee4e95	-0.11636082
227	0xbdb42c22	-0.0879748
228	0xbe4f9ce8	-0.20274699
229	0xbe453b37	-0.1926087
230	0x3e89bef6	0.26903504
231	0x3e2de9f3	0.16983776
232	0x3d2135b4	0.039357856
233	0x3e8be2c0	0.27321434
234	0x3e4ca8e5	0.19986303
235	0x3e229f55	0.15881093
236	0x3dfdc990	0.123919606
237	0x3d2309a0	0.0398041
238	0xbd78ff8e	-0.06079059
239	0xbda5cc03	-0.08095553
240	0xbe0dd686	-0.13851365
241	0xbdb0ac68	-0.08626634
242	0x3dd53291	0.104100354
243	0xbe211862	-0.15731958
244	0x3d8bfd6d	0.068354465
245	0x3e4a3a87	0.19748889
246	0xbd5d2891	-0.053993765
247	0xbe42fe32	-0.1904228
248	0xbdf6d084	-0.1205149
249	0x3e123a92	0.14280155
250	0xbae3e323	-0.0017386418
251	0xbdbc5287	-0.09195428
252	0xbc157276	-0.009121528
253	0xbe3a1a89	-0.18174185
254	0x3e5d327f	0.21601294
255	0xbcb7e622	-0.022448603

policy_network.0.bias f4 [32]
0	0xbc8e050f	-0.017336397
1	0x3e67ad98	0.22624815
2	0xbe3e9052	-0.18609741
3	0x3de134c8	0.10996395
4	0x3e840794	0.25787032
5	0x3cce3c2c	0.025175177
6	0x3e825d7e	0.25461954
7	0xbda976e3	-0.08274629
8	0xbe190e7d	-0.14946933
9	0x3e54e72a	0.20791307
10	0x3e5a6195	0.21326287
11	0xbdf21bee	-0.118217334
12	0x3df8b922	0.12144686
13	0xbe2e35a9	-0.17012657
14	0x3e7845e1	0.24245407
15	0xbe2d765c	-0.16939682
16	0xbe54a86d	-0.20767374
17	0xbe164cd1	-0.1467774
18	0xbe84abc0	-0.25912285
19	0xbe2d5fb5	-0.1693104
20	0x3de06515	0.1095678
21	0x3e622797	0.22085415
22	0x3e5a7568	0.2133385
23	0xbdcd061c	-0.10010931
24	0xbe2c4c61	-0.16826011
25	0x3e83e0d4	0.25757468
26	0x3d9fb533	0.07798233
27	0x3e0ddf97	0.13854824
28	0xbde4fb03	-0.11180689
29	0x3ccdc336	0.025117498
30	0xbcf45130	-0.02982387
31	0xbe0ebac8	-0.13938439

policy_network.2.weight f4 [32, 32]
0	0x3e24096a	0.16019216
1	0xbdf459ba	-0.119311765
2	0x3e110e7c	0.14165682
3	0x3ded260b	0.11579522
4	0x3e1ab9a3	0.15109877
5	0xbd7eb267	-0.062181856
6	0x3e2055d7	0.15657745
7	0x3cb31106	0.021858703
8	0xbd19971d	-0.03749763
9	0xbdd367fc	-0.10322568
10	0x3d0cf189	0.034410033
11	0x3dcdc5a7	0.10047465
12	0xbc08eb5f	-0.008356898
13	0x3d5701db	0.052492004
14	0x3e119250	0.1421597
15	0xbd599656	-0.053121887
16	0xbe1233ee	-0.14277622
17	0x3df6cf89	0.12051303
18	0x3df51218	0.11966342
19	0x3aa78d19	0.0012783139
20	0x3e0f9565	0.14021833
21	0x3dee8530	0.11646497
22	0xbde0dc61	-0.10979534
23	0x3e2632bf	0.16230296
24	0xbdd7e2d3	-0.1054131
25	0xbc595274	-0.013264287
26	0xbcab5537	-0.020914657
27	0xbdb64726	-0.08900289
28	0xbe1042a8	-0.14087927
29	0xbe11da3a	-0.14243403
30	0xbd9dd598	-0.077067554
31	0x3d0d0841	0.0344317
32	0xbe134724	-0.14382607
33	0xbe320234	-0.17383653
34	0xbde9df6a	-0.11419566
35	0xbd99023d	-0.0747113
36	0xbe3863b8	-0.1800679
37	0xbd6d2cfb	-0.057904225
38	0x3cacb9f6	0.021084767
39	0x3e1c098b	0.15238015
40	0x3c3fe4fc	0.011712309
41	0xbe04afc5	-0.12957676
42	0x3e203061	0.15643455
43	0x3d6ed68d	0.05831008
44	0x3e26eefe	0.16302106
45	0xbdc65bde	-0.09685491
46	0x3e05852c	0.13039082
47	0xbe1dd08c	-0.15411586
48	0xbe0c1b5e	-0.13682315
49	0xbd656888	-0.056007892
50	0xbdfedefc	-0.12444875
51	0x3de6fc3f	0.11278581
52	0x3c20408d	0.009781015
53	0xbe3d02e5	-0.18458135
54	0xbd7d91d6	-0.061906658
55	0x3e0d8d80	0.13823509
56	0x3db0d6e0	0.08634734
57	0xbd983c9d	-0.07433436
58	0xbdd2a058	-0.102844894
59	0x3db98fd2	0.09060635
60	0xbe209c21	-0.15684558
61	0x3e130c9a	0.14360276
62	0xbe34d756	-0.17660269
63	0x3ddc90f4	0.10769835
64	0x3cb26719	0.021777676
65	0x3c31b0e3	0.010845396
66	0x3e09b0c2	0.13446334
67	0xbdfde48f	-0.1239711
68	0xbe2cab98	-0.16862333
69	0xbb94123a	-0.0045187743
70	0xbe2c6397	-0.16834866
71	0xbd09d3e0	-0.033649325
72	0xbdf0fd4c	-0.117670625
73	0xbd869a24	-0.06572369
74	0xbe0f3dd8	-0.13988435
75	0xbccdd7da	-0.02512734
76	0x3d0f895b	0.0350431
77	0xbe094fde	-0.13409373
78	0xbd848bd8	-0.064719856
79	0x3d37ea3d	0.04490112
80	0xbe02b844	-0.12765604
81	0xbdcead03	-0.10091593
82	0x3dc9221d	0.0982096
83	0x3e2df236	0.16986927
84	0xbd9fdae9	-0.07805426
85	0xbc5db622	-0.013532193
86	0xbd598ee4	-0.053114787
87	0x3ddac9bd	0.1068301
88	0xbe2aef24	-0.16692787
89	0x3d8e578b	0.06950291
90	0x3d89aa12	0.067218915
91	0xbe1c499b	-0.15262453
92	0xbd4bc454	-0.04974778
93	0x3e25f1be	0.16205499
94	0x3db3d578	0.0878095
95	0xbda0b7c8	-0.078475535
96	0xbdd5c265	-0.104374684
97	0xbdae59a4	-0.08513191
98	0x3e1d80a0	0.15381098
99	0x3c257e64	0.010100935
100	0x3dc5da23	0.09660747
101	0xbdc4c397	-0.09607618
102	0x3db76784	0.08955291
103	0xbbb9fa8f	-0.005675621
104	0x3b880ac7	0.0041516754
105	0xbd7da231	-0.061922256
106	0xbe01588e	-0.12631437
107	0x3dbcf034	0.092255026
108	0x3e09f3c7	0.134719
109	0x3e2d0808	0.16897595
110	0xbbe52183	-0.0069925203
111	0xbca33c60	-0.01992625
112	0x3e281ae8	0.16416514
113	0x3d8482f3	0.06470289
114	0xbe139954	-0.14413959
115	0xbddc14f4	-0.10746184
116	0xbe117b96	-0.142073
117	0x3e261020	0.16217089
118	0x3d2c2b8e	0.042033724
119	0x3e218929	0.15774979
120	0xbdd72e8c	-0.10506925
121	0x3dba542f	0.09098088
122	0xbdc914ff	-0.09818458
123	0xbdb2da39	-0.08733029
124	0xbd4e3e89	-0.050352607
125	0x3d0ea7d0	0.034828007
126	0xbde65884	-0.11247352
127	0xbe0f29e8	-0.1398083
128	0xbb78ea6b	-0.003798152
129	0x3d312ca4	0.043255463
130	0xbe22fb60	-0.15916204
131	0x3c9b8b7e	0.018987413
132	0xbdd6a0d4	-0.10479894
133	0xbd99aeb2	-0.075040236
134	0x3d0db31e	0.034594648
135	0xbd2ea7d2	-0.042640515
136	0x3df9230e	0.12164889
137	0x3d8f578a	0.069991186
138	0x3da158d2	0.07878269
139	0x3d75d004	0.060012832
140	0xbe3dbac5	-0.18528278
141	0xbd57d0cb	-0.052689355
142	0x3ced99e4	0.029004045
143	0xbe339259	-0.17536296
144	0xbd4489bd	-0.04798292
145	0xbde7ef45	-0.11324934
146	0x3da91057	0.0825507
147	0xbe17493a	-0.14774027
148	0x3da02ac5	0.07820658
149	0xbdc73934	-0.097277075
150	0xbdfa1e79	-0.122128434
151	0x3d7bd8bc	0.06148599
152	0x3e32dee3	0.17467837
153	0xbd48bd8d	-0.049008895
154	0xbd95cc6e	-0.073143825
155	0xbd763bb4	-0.06011553
156	0xbdf5dd44	-0.12005094
157	0x3dd8fdaf	0.10595261
158	0x3e2b3d47	0.16722594
159	0xbcf8c44b	-0.030367037
160	0x3c8e6b4e	0.017385151
161	0xbe0ac44c	-0.13551444
162	0xbdc5a145	-0.096499
163	0x3cb75c94	0.022383012
164	0xbe1ae3b5	-0.15125926
165	0xbdc34a5f	-0.095356695
166	0x3e11a81a	0.14224282
167	0x3c87dd85	0.01658512
168	0x3c63fec7	0.013915724
169	0x3af692d3	0.0018812068
170	0xbd99cb12	-0.07509436
171	0xbe2f092e	-0.17093346
172	0x3e2f3974	0.1711176
173	0xbda4ee0d	-0.08053217
174	0x3db351bf	0.08755826
175	0xbd41ea19	-0.047342394
176	0x3dd136aa	0.102155045
177	0x3e0bb577	0.13643442
178	0x3e23c376	0.15992531
179	0x3d8ad5d3	0.06779065
180	0x3d58766d	0.052847315
181	0xbd14b51b	-0.036305528
182	0x3d004013	0.031311106
183	0xbe244cae	-0.16044876
184	0x3d8631a2	0.065524355
185	0x3d91758c	0.071024984
186	0xbe28416e	-0.1643121
187	0xbd9d1ce5	-0.07671527
188	0xbd5be0fd	-0.053681362
189	0xbb986c96	-0.0046516163
190	0x3c9c6c08	0.019094482
191	0xbe1057fe	-0.14096066
192	0x3d0dae54	0.03459008
193	0xbe35d2c0	-0.17756176
194	0xbd8cb1e3	-0.06869867
195	0x3e432e0d	0.19060536
196	0x3e25be51	0.16185881
197	0x3e1938c3	0.14963059
198	0xbd0676f0	-0.03282827
199	0x3e1176a9	0.14205422
200	0xbd02c9ec	-0.03193085
201	0xbe15355c	-0.14571136
202	0x3e12afc0	0.14324856
203	0xb8d2ac73	-0.000100457015
204	0x3df6d28b	0.12051877
205	0xbd4fe557	-0.050755825
206	0xbe05fbb6	-0.13084301
207	0xbde85452	-0.11344208
208	0x3e112f40	0.1417818
209	0xbddbaea2	-0.10726668
210	0x3d969836	0.07353251
211	0x3b943715	0.004523168
212	0xbd7f2402	-0.0622902
213	0x3da7c490	0.08191788
214	0xbdab544d	-0.083656885
215	0x3e40db5e	0.18833682
216	0xbdd325a1	-0.103099115
217	0x3e4ab4d4	0.19795543
218	0xbd16b50d	-0.036793757
219	0x3e2785da	0.16359654
220	0xbcb40ade	-0.021977838
221	0x3e181f56	0.14855704
222	0x3d6a8d63	0.057263743
223	0xbe453146	-0.19257078
224	0xbe37e768	-0.17959368
225	0xbdf80c6e	-0.12111746
226	0x3dbe1dd1	0.09283031
227	0x3dd4502a	0.103668526
228	0xbd303c4f	-0.043026265
229	0x3d50f203	0.05101205
230	0xbc07d9a9	-0.00829164
231	0x3c8c613e	0.017136212
232	0x3b096153	0.002096255
233	0xbbff2f5e	-0.007787629
234	0xbe2384ce	-0.1596863
235	0x3de1400c	0.10998544
236	0xbc108ba9	-0.00882236
237	0xbdb3cde1	-0.08779503
238	0xbc880ce7	-0.016607715
239	0xbb27153e	-0.002549484
240	0xbc8f5e4a	-0.017501015
241	0x3df5eb4f	0.12007772
242	0xbdb1ee91	-0.08688081
243	0xbd1d37a8	-0.038383156
244	0xbe254965	-0.16141279
245	0x3dbf202f	0.093323104
246	0xbdaa8166	-0.08325462
247	0xbd1e952f	-0.03871649
248	0xbdff945b	-0.124794684
249	0xbc945dbb	-0.0181111
250	0xbe2cc290	-0.16871095
251	0x3e23e707	0.16006099
252	0xbda93f05	-0.08263973
253	0x3b365a77	0.0027824917
254	0xbe07e98e	-0.13272688
255	0x3d435801	0.04769135

policy_network.2.bias f4 [32]
0	0xbe303ca6	-0.17210636
1	0x3d5bac69	0.05363122
2	0xbdeceae1	-0.11568237
3	0x3e1fc53a	0.1560258
4	0x3de3b065	0.11117629
5	0x3d24bb2a	0.040217556
6	0x3dcc5397	0.09976881
7	0x3dccfe1a	0.100094035
8	0xbd913c40	-0.0709157
9	0x3bd733ae	0.00656744
10	0x3daef170	0.08542144
11	0xbd85efd4	-0.06539884
12	0x3d74c1ca	0.059755124
13	0x3de709ae	0.11281143
14	0x3d2c43ff	0.042057034
15	0xbe2efaa5	-0.17087801
16	0x3dbd803b	0.09252974
17	0x3e18898b	0.14896218
18	0x3dd9eec3	0.10641243
19	0xbe287f19	-0.16454734
20	0xbc8d9d1c	-0.01728683
21	0x3e332fee	0.17498752
22	0xbdda2d3c	-0.10653159
23	0x3de92315	0.113836445
24	0xbddc9365	-0.10770301
25	0xbe117eb9	-0.14208497
26	0x3e21006f	0.15722822
27	0xbe015aaa	-0.12632242
28	0x3daa2115	0.08307091
29	0x3d911a5a	0.07085104
30	0x3c797bc2	0.01522726
31	0xbe2fdb79	-0.17173566

policy_network.4.weight f4 [2, 32]
0	0xbe24451a	-0.16041985
1	0xbe105585	-0.14095123
2	0xbdc697e5	-0.0969694
3	0xbdb98bc9	-0.09059865
4	0xbdbfc3a8	-0.0936349
5	0x3e1694e0	0.14705229
6	0xbe02605b	-0.12732069
7	0x3c8f6707	0.017505182
8	0x3d951da5	0.07281045
9	0x3db2e7c1	0.0873561
10	0x3d991287	0.07474237
11	0x3cf26b50	0.029592186
12	0x3ce13242	0.027489785
13	0x3dca16e2	0.09867646
14	0xbd831a89	-0.064015456
15	0x3e20188a	0.15634361
16	0xbe4326cc	-0.19057769
17	0x3e033281	0.12812234
18	0x3ccb418e	0.024811532
19	0xbe08ca72	-0.13358477
20	0x3d04b8f3	0.032402944
21	0xb9fc5a2c	-0.0004813237
22	0xbe08a570	-0.1334436
23	0x3d8ac029	0.06774933
24	0xbe011220	-0.1260457
25	0x3e0ed63f	0.13948916
26	0xbd310fbc	-0.043227896
27	0xbe5cdb91	-0.21568133
28	0xbe28b832	-0.16476515
29	0xbe2559c6	-0.16147527
30	0x3d79af2e	0.06095808
31	0x3e2a6d10	0.16643167
32	0x3dcf6035	0.10125772
33	0xbe0242c7	-0.12720786
34	0x3d0844a0	0.03326857
35	0xbd1324cb	-0.03592376
36	0xbdaeaa91	-0.08528627
37	0xbe036d38	-0.12834632
38	0xbd006c00	-0.031352997
39	0xbdfda04a	-0.12384088
40	0x3e3df384	0.18549925
41	0x3e2accf2	0.16679743
42	0x3ddebdc0	0.10876036
43	0xbc561943	-0.013067546
44	0x3e51b711	0.2047999
45	0xbc9708a9	-0.018436747
46	0x3d918564	0.0710552
47	0x3e108a57	0.14115272
48	0x3dbb4aba	0.09145112
49	0xbd547b35	-0.051875312
50	0xbd534a59	-0.051584575
51	0xbd5340da	-0.05157552
52	0xbd8118ea	-0.0630358
53	0x3e3d39e6	0.18479118
54	0xbe13f627	-0.14449368
55	0xbbfd7ab5	-0.007735575
56	0x3e4a0712	0.1972926
57	0xbd8a35c4	-0.06748536
58	0xbd31e49e	-0.043430917
59	0x3e35671e	0.17715117
60	0xbd46041d	-0.048343766
61	0x3c661c5b	0.014044846
62	0x3e2cabad	0.16862364
63	0x3dafdb88	0.08586794

policy_network.4.bias f4 [2]
0	0x3af09a92	0.0018356612
1	0xbdc1f3e4	-0.094703466
